data/model/diagnosis/best_pH_ANN_model.pth (torch, 76664 bytes, 8 tensors)

fc1.weight f4 [128, 7]
00000000: ea24 abbe a28d ebbe 6b77 0cbf 53a4 05bf
00000010: d3c9 50bd 183a 01bf 376e 0c3f d6b9 09be
00000020: 7b10 b4be 803a 243d 6fa1 883e 486f 76bd
00000030: 6075 ec3d 1f8c 963e 6d64 2c3e 830f cbbe
00000040: 9f28 e1be 5eda 0cbf d5de 973c 31e4 acbe
00000050: 592f 603f e352 343e 2a4d ebbc 2a90 9fbe
00000060: 613a 6c3e 06ae 173d 9cd2 a43e c76d 303d
00000070: 4242 963e 804a a53e b63d b83e 5c81 e4be
00000080: 336a 0ebd 3d0b 723e 1053 4ac0 fca4 7dbd
00000090: 4318 1c3e 80d9 83be cea9 ec39 8df7 26be
000000a0: 7570 f8bd ce39 cf3f 925f 063e b000 dcbe
000000b0: 89b4 a03e 9dd5 883c efdf db3d 0300 9d3e
000000c0: ed6e 1abe 018a 153e 3b75 f13d 51fb 393e
000000d0: 5881 93bc c22e 96be 4a85 70be 0486 6bbf
000000e0: 0315 863c c0ae e6be 17af 8e3e 6d49 a1bd
000000f0: f084 7bbf a165 99be 7f8b a83f 8a20 b2be
00000100: 00ae c8ba 289a e3bd 3d29 933e c0c7 bcbc
00000110: 5ae0 4a3e b402 f5bd 2d71 cabd 5c87 493e
00000120: 6dd7 85be e930 303e be50 373e 5935 d8bd
00000130: 5e8e 8abf a44b bb3e 6f6b a3bd e666 fc3c
00000140: 831f 7bbd 7d2e 103d 6c19 f53e 5e89 3fc0
00000150: 9c80 e1be f6e5 49bf e87f 55bf 9526 b2be
00000160: 6b38 e8be 0b4a edbe a4e4 b43f e7b1 e53e
00000170: c87f 013f 3655 f33e d282 ba3e f44c 55be
00000180: a197 8a3e b032 0ac0 a1c5 56be 61a6 b4be
00000190: 16fe 43be 43a7 52be 2ff9 1bbe 35b0 a2be
000001a0: 202e e9bc 1208 22bf 6178 aebe 6528 b1be
000001b0: bef0 49bf a2cb a9bf 475b 06be 92d4 943f
000001c0: 192a 903e 3199 ca3d fc03 eebd 9f76 a4be
000001d0: 9387 46bf aea1 babe bbfd 973e 0a4e 963e
000001e0: 5e40 343d 32d7 3cbe 4b79 46be b3ae 9a3d
000001f0: 9ed6 a73e 6474 d3be 3657 04bf 09e8 0dbf
00000200: 2991 683d a79b ecbe 728f 8c3f 3546 79be
00000210: 5615 debf d3b3 42be 98ed a03e 4ccd 03be
00000220: 658e 6c3e 6aa3 89be 1699 d2be b15b aa3f
00000230: cc4f cbbe ccf9 bbbe c251 95bd 4252 dfbd
00000240: a2fc 30be 60ba dfbe 1534 cebf eba7 91be
00000250: 2052 3fbe 893f 83be b97f f43e e551 c9bd
00000260: 95ba 4cbe 9cb2 6cbf 40db 85be 60b1 7f3c
00000270: 002b f1bb 17ae 64be 90cf eb3c c4ee 8fbd
00000280: 5cf4 afbe cc8f fc3d bc61 913d c47e 8f3d
00000290: 788e 033d 3fd4 0fbe 34d9 adbe 867d 3e3e
000002a0: 6620 b9be 007a 833e 5965 30be 679d 7dbf
000002b0: 9140 a1bf 347f c73d 2268 e3be aaff dbbf
000002c0: 5181 d5bf 9c09 b8bf 5184 00c0 16ef 0cbe
000002d0: 8c3c 02c0 07e7 113e 22e3 49be 7c24 dbbd
000002e0: 8f22 8d3e ac95 3bbe 00ca fc3a 5249 373e
000002f0: beb6 053e 8853 d13e 2d71 363e d46e dfbd
00000300: 1bea 3dbd 29c7 10be 20d6 c03e 2b75 683f
00000310: 77ab 31be a3f8 a6bd acf2 d0bd 2398 223e
00000320: 5e86 f6be 649a 813c 1c22 7dc0 f5fb 11bf
00000330: b56f 853d e1ea e6be 66ad 713e f60f 3fbd
00000340: 23eb e3be dfba b93e a8ca c8be bbbf 56bf
00000350: 4808 f6be cd50 2b3e 3df6 09be ca7c 15bf
00000360: f085 763f 71ed 03be 281a 6b3d 3648 04be
00000370: bdde 9d3e e2fe abbe 01a8 2dbe 20d9 983d
00000380: 4ee9 22bf b774 90be d7f2 5e3d afb5 27be
00000390: dc47 37bf 9574 8f3d 39a1 3a3f a65a 4f3e
000003a0: 01e1 8dbe 98f7 f93d 0e4f 50be 31db 96bc
000003b0: b7ef 953e 323a aabf 49be d7bd 8ff6 b4be
000003c0: 0ae7 31bf 7541 80be e606 d9bd cec5 44bf
000003d0: 7af9 84bd e13b 42be c383 a6be a6ea eabd
000003e0: 4d90 90be f293 ae3e 2386 683e c937 dc3f
000003f0: 3b10 2c3f 4b12 333f 303c 1d3f c881 0a3e
-0.334266 -0.46006495 -0.5486972 -0.52203864 -0.050973725 -0.5047927 0.54855675 -0.13449797
-0.35168824 0.040094852 0.26685664 -0.06016472 0.11545825 0.2940378 0.16835184 -0.39660272
-0.43976304 -0.550207 0.018538872 -0.33767846 0.87572247 0.17609744 -0.028723318 -0.31164676
0.23069145 0.037031196 0.32191932 0.04307344 0.29347426 0.322834 0.35984582 -0.44629943
-0.03476925 0.236371 -3.1613197 -0.06192492 0.1524363 -0.25751877 0.00045139942 -0.1630537
-0.121308245 1.6189516 0.13122395 -0.42969275 0.31387737 0.016703421 0.10736071 0.3066407
-0.15081377 0.14603426 0.11789938 0.18162276 -0.018006012 -0.29332548 -0.23488346 -0.92001367
0.016367441 -0.450552 0.27867958 -0.07875333 -0.9824972 -0.2996035 1.3167571 -0.3479045
-0.0015310645 -0.11113387 0.287424 -0.023044467 0.19812146 -0.11963406 -0.09884868 0.19680542
-0.2614092 0.17206158 0.17901894 -0.1055705 -1.0824697 0.36581147 -0.07979476 0.030810785
-0.06130935 0.035200585 0.47870958 -2.9927592 -0.44043434 -0.7886652 -0.83398294 -0.3479506
-0.45355543 -0.46345553 1.4132276 0.4486229 0.50585604 0.47525948 0.36427933 -0.20830137
0.2706881 -2.1593437 -0.20973827 -0.35283187 -0.19139895 -0.20571618 -0.15231775 -0.3177506
-0.028464377 -0.63293564 -0.34076217 -0.3460113 -0.7888297 -1.3265269 -0.13120757 1.1627371
0.28157118 0.098925 -0.11621854 -0.3212175 -0.7755062 -0.36451477 0.29685768 0.29356414
0.044006698 -0.18441465 -0.19382207 0.075528525 0.32780927 -0.41299736 -0.51695573 -0.5543218
0.05677906 -0.46212503 1.0981276 -0.24343188 -1.7350261 -0.1901391 0.3143127 -0.12871283
0.23101194 -0.26882488 -0.4113242 1.3309232 -0.39709318 -0.36714017 -0.07290985 -0.10904361
-0.17283872 -0.4369688 -1.6109644 -0.28448424 -0.18683672 -0.2563441 0.47753695 -0.09830073
-0.1999305 -0.92460036 -0.26143837 0.015606254 -0.0073598623 -0.22332035 0.028785497 -0.07027963
-0.3436612 0.123321146 0.070987195 0.070066005 0.03211829 -0.14045809 -0.33954775 0.18602571
-0.3615753 0.25679016 -0.17226161 -0.990683 -1.2597829 0.09741059 -0.44415385 -1.7187397
-1.6680089 -1.4377933 -2.008076 -0.13763079 -2.0349455 0.14248286 -0.1971555 -0.10700318
0.2756543 -0.18318814 0.0019286275 0.17899063 0.13057992 0.40884042 0.1781661 -0.10909811
-0.04636584 -0.14138474 0.37663364 0.90803784 -0.17350565 -0.081528924 -0.10202536 0.15878348
-0.4814939 0.01582069 -3.9552069 -0.5702508 0.06515447 -0.45101073 0.23601303 -0.04664608
-0.44515333 0.36275384 -0.39217114 -0.8388631 -0.48053193 0.16730042 -0.13472839 -0.5839354
0.9629812 -0.12883545 0.05739799 -0.12918171 0.30833998 -0.33592898 -0.1695862 0.07463288
-0.63637245 -0.28214046 0.05443081 -0.163779 -0.71594024 0.07004658 0.72902256 0.20249423
-0.27710727 0.12205428 -0.20342657 -0.018415065 0.2928445 -1.329901 -0.10534341 -0.3534436
-0.6949316 -0.2504994 -0.10597019 -0.76864326 -0.064928964 -0.18968154 -0.325224 -0.11470537
-0.28235093 0.34097248 0.22707419 1.7204524 0.67212266 0.6994979 0.61419964 0.1352607

fc1.bias f4 [128]
00000000: d940 163f b95c bebe 2ad6 68be 0548 08bf
00000010: 40d1 253f 128f dbbe 081e d7be 5c22 593f
00000020: 0707 eebe a874 6abd e6ed 673f 7c24 143f
00000030: 81de 273e a143 61be 7567 6bbe ee3f bf3e
00000040: e559 b6bd 82d4 b7be 484e 5e3f 99f0 af3c
00000050: 93ae d33e adcc 783f 9e32 9dbe 00a0 8ebe
00000060: 8c78 2b3f 0e9d 0b3e 4e12 8ebe 7817 60bf
00000070: 2f28 363f 5054 8abe 3bec abbe 44f2 f9bd
00000080: 4d07 59be cd98 283f da5b 7d3f f33e 0cbf
00000090: be2e 81bf 717f 93be 6698 533f 7b13 c0be
000000a0: 4806 9c3e 6bff 733f 909b 0f3d 610d 24bf
000000b0: 22c4 c9be e687 0cbe f6ea 0cbe 8de2 adbe
000000c0: 1921 70be 0d81 5dbe a2fa 5c3f 7d81 d8be
000000d0: 7731 fcbe 3d5a dcbb 2345 023f ec3b 073f
000000e0: d0df aebd c4e8 343f 87b9 b7be e8ac 6ebe
000000f0: a194 4d3f de31 a1be 2eca 83be 6ccf f5bc
00000100: c4ea 283f 6644 803e c6cf 25be 3e47 18be
00000110: c4d6 23be 2c73 dfbc ba64 4abe 24df d73e
00000120: c14d babe 6dce 103f 6871 053f cb93 0c3e
00000130: e49c 98be 5bdf 5c3e 8ed8 abbe a525 5e3f
00000140: f69e 343f 9ea2 a7be 9bf7 913c 6dc2 37be
00000150: e8eb 573f 0556 2fbe a666 513f 13c4 6a3f
00000160: 0f34 65be 03bc 8e3e c158 0dbf c939 143f
00000170: 904b ccbd cb18 fbbe 6f87 cbbe 3589 1fbe
00000180: 7641 34be 9457 d0bf d4a2 473e 7e20 7bbf
00000190: f456 7dbf e775 6abe bf16 efbe 9599 733f
000001a0: 0a4f 1b3f 084d 0dbe 14b4 2bbd 0ea3 88be
000001b0: ce83 243f ed52 8dbe 4619 9bbe f5aa 363c
000001c0: 25c9 25be fcdb b63e c010 663f fc17 88be
000001d0: 8a6c ca3e 4baf 953e f91d 593f 6963 253f
000001e0: 85ee 233f faa0 463f 791f 083c a7ab 373f
000001f0: 5357 523f 6f0e 59be 90ed 113e 4450 383f
0.586927 -0.37180117 -0.22737947 -0.53234893 0.64772415 -0.4288259 -0.420151 0.84818053
-0.46489736 -0.05724016 0.9059738 0.5786817 0.16393472 -0.21998455 -0.22988684 0.37353462
-0.08903865 -0.35904318 0.868382 0.02147703 0.41344127 0.9718731 -0.3070268 -0.27856445
0.66980815 0.1363413 -0.2774834 -0.8753581 0.71155065 -0.2701745 -0.33578667 -0.122044116
-0.21194191 0.65858155 0.9896828 -0.5478355 -1.009239 -0.28808168 0.82654417 -0.37514862
0.30473542 0.9531161 0.035060465 -0.64082915 -0.3940745 -0.13723716 -0.13761505 -0.33961907
-0.23450126 -0.2163126 0.86319935 -0.42286292 -0.4925649 -0.0067246244 0.50886744 0.5282581
-0.085387826 0.7066767 -0.35883734 -0.23308146 0.80304915 -0.31483358 -0.25740188 -0.030006133
0.65983224 0.25052184 -0.1619254 -0.14870927 -0.15999895 -0.027276598 -0.19764987 0.4216243
-0.36387447 0.5656498 0.5212617 0.13728254 -0.29807198 0.21569578 -0.33563656 0.8677619
0.70555055 -0.32741255 0.017818263 -0.17945261 0.8434434 -0.17122658 0.81797254 0.91705436
-0.2238314 0.27877817 -0.5521355 0.57900673 -0.0997535 -0.49042353 -0.39751765 -0.15579684
-0.17603096 -1.6276727 0.19495708 -0.98096454 -0.98960805 -0.22896539 -0.4669704 0.9515622
0.6066748 -0.13798916 -0.041919783 -0.266869 0.6426362 -0.2760233 -0.3029272 0.011149158
-0.16190012 0.3571471 0.8986931 -0.265808 0.39535934 0.292353 0.8481136 0.6460481
0.64035827 0.7758938 0.008308285 0.71746296 0.82164496 -0.21196912 0.14250779 0.71997476

fc2.weight f4 [128, 128]
00000000: a9f6 b0bd dcd8 e33c 82d4 c6bd 49cc 98bd
00000010: 00a2 243d 720b 69bd 57a2 6b3d 43ab c8bd
00000020: f348 ca3c e066 b1bb 7f16 05bd 8643 21bd
00000030: 33cd 543d 0ae5 4b3d 5e94 5b3d a1e8 a73c
00000040: 5b5e 89bd 0a6f 603d 4643 7c3c 9daf 44bb
00000050: fa40 d4bb 57d8 863c 80ce c73b 1fad 19bd
00000060: 1fba 92bd 54d2 80bd a078 0abc a778 51bc
00000070: 85ba 35bd 4866 efbd 8530 c5bc e86e 213c
00000080: 4d2e 413d b3bb b8bd 2ba0 af3c 532c 25bd
00000090: 928d 75bd fcb3 3cbd 5ba7 abbd edc3 8c3d
000000a0: c5d8 66bb 2445 feba 0deb 833c bcfc 4a3c
000000b0: 1d39 0dbd ea49 a1bd 7c52 73bd 4ed9 c4bd
000000c0: f059 32bc 2e99 7d3d 03d1 fcbd ea81 943c
000000d0: 0be3 bdba e145 80bd 8642 353c 428c 6b3d
000000e0: 4cf2 043d a0b6 683c ef57 8e3d 297e 553c
000000f0: 33c5 b2bc 1480 56bd d036 a43c 18fd cc3c
00000100: 5062 87bd 28c8 d6bd 6eaf 733d 04e9 ef3c
00000110: e951 b03d 46ee 6cbd 6e8e 93bb ec38 90bc
00000120: c6ec 2a3d 9aa3 acbd 962a 283d 3c55 e23c
00000130: 85b6 9d3c a951 d7bd 718e 0cbd 1c76 f1bc
00000140: 0c74 af39 2856 f9bc 2f77 a63d bdac 863d
00000150: f2cd bdb9 7e4b b2bd 7d26 08bd 8428 babd
00000160: a2a0 d33b 3997 69bd 8c42 23bd bf2f f5bd
00000170: 608c 473d 70f3 433c db7a b7bd 8239 16bd
00000180: 486d edbd 6281 ce3c 4e7d db3c d6c3 a3bc
00000190: 31f4 c8bd 8101 2abd 9381 89bd 1813 373d
000001a0: 90af c8bb 5067 fdbb d190 f8bd adfb cebd
000001b0: 80e1 d8bb 94f4 44bd 62b4 07bd 0052 c5bb
000001c0: f645 7d3d 9a42 eebd 7c7c cebd 1688 303d
000001d0: f1d5 b2bd fcdc 8ebd 4159 273d 4a9e 063d
000001e0: c386 913d b821 42bd 5afc 5a3d bae4 563d
000001f0: a518 05bd 72e6 84bd 7a4b a03c ccd1 91bd
00000200: 5ac7 99bd cc03 0ebd a65e 22bc 4a9d 39bc
00000210: 65f3 8d3a 2a6b 783d 6d2f 103d d92e eebd
00000220: 7cd4 f9bc c21b 41bd 3e07 7fbb 8a88 4fbc
00000230: 887d 633d 9ff0 323b 1b15 afbd daba 1f3d
00000240: 1e3a abbd b272 713d fa0f 23bd 6ed7 3d3d
00000250: 1236 ee3c 3172 6b3d 48f0 b23c d08b ec3b
00000260: 07eb 82bb 8a8c 4d3c 9281 10bd ceca 2ebc
00000270: dda1 a6bd 732b 7a3d 50d7 943c 8009 1ebc
00000280: 738a a0bd 5310 62bd a8c5 553c c57d cb3d
00000290: dfaf d9bc 3774 d43d eb41 d6bd 0025 ecba
000002a0: 19d4 a639 56c6 c53d 0de5 1ebd f72e abbd
000002b0: 93b8 85bd 0b43 9fbd b91d 02bd c7d7 63bd
000002c0: 60c7 1dbb b757 8bbd 7060 b63a 0771 28bd
000002d0: d0cd 9dbb ff86 83bd f274 a9bd d890 c53d
000002e0: 6011 aabd 0e0a 7cbd 03bd 23bd ba9e fbbd
000002f0: 038e 243d f0b9 573c 0933 3f3c 344d 183d
00000300: fa01 2b3c 6053 fe3b 80a9 efba 602c f83b
00000310: 2f96 0bbd 665f 5a3d f9cc 4abd 2041 a0bd
00000320: 7d93 943d dbc4 36bd 7590 fb3a 34a7 943c
00000330: 03ee 87bd 8aaf 053d 05c5 69bd 2654 de3d
00000340: 10e2 203d a65f 003d 28d6 a2bc 88d9 b23d
00000350: af87 91bb 39e0 a93d 2e2b 5d3d 19ef bcbd
00000360: 6370 dcbc bf4b 3e3d 4b11 eaba 5053 25bd
00000370: 5b4b c2bc 9493 a03d d4ce 15bd c758 f93c
00000380: 9d56 5ebd 876e 9ebd 0f57 66bb 1271 86bc
00000390: 39b6 bcbd 381a 5b3c efd9 febd e0c0 d13b
000003a0: eb8a 0c3d f6af 093d c4ea c23c 5795 8c3d
000003b0: 9b2d 5bbc 308b a2bc 80c3 99bd 5b28 68bd
000003c0: d556 24bd 342b f83c e13f 4d3d 9ef4 273d
000003d0: c0ce e9bd 6d2e 6a3d 1e6e 2a3d a2a0 15bd
000003e0: 0ee6 20bd 04a6 23bd 1ad0 513d 946e 473c
000003f0: c2eb 75bd 4489 b4bc dc19 68bd affc e3bd
-0.08640797 0.027813368 -0.097085014 -0.07460839 0.040193558 -0.05689568 0.057527866 -0.097982906
0.024692988 -0.005413875 -0.032492157 -0.039371036 0.051953506 0.049778976 0.05360829 0.020496668
-0.0670745 0.054793395 0.015396899 -0.00300119 -0.0064774724 0.01646058 0.0060976148 -0.037518617
-0.07164406 -0.06290117 -0.008451611 -0.012785113 -0.044367332 -0.116894305 -0.024070987 0.009853102
0.047163296 -0.09020176 0.021438679 -0.040325474 -0.059949465 -0.046070084 -0.0838153 0.068733074
-0.003522442 -0.0019399268 0.016103292 0.012389358 -0.034478296 -0.07875426 -0.059404835 -0.0961176
-0.010885701 0.06191366 -0.12344553 0.018128354 -0.001448722 -0.06263328 0.011063224 0.057506807
0.032457635 0.014203697 0.06950366 0.013030567 -0.021822548 -0.05236824 0.020045668 0.025023028
-0.066105485 -0.104873955 0.059493475 0.029285915 0.08609373 -0.057844423 -0.004503063 -0.017605267
0.04172971 -0.08429642 0.041056238 0.027628534 0.019252071 -0.10513622 -0.03431553 -0.029475264
0.00033465063 -0.03043659 0.08128201 0.06575916 -0.0003620233 -0.08705805 -0.03323983 -0.09089759
0.006458358 -0.057028983 -0.039858386 -0.119719975 0.048717856 0.0119598955 -0.0895898 -0.036675937
-0.11593109 0.025208179 0.026793148 -0.019990843 -0.09812201 -0.04150534 -0.067141674 0.044695944
-0.0061244443 -0.007733263 -0.121369965 -0.10106597 -0.0066186786 -0.04808481 -0.03313101 -0.006021738
0.061834298 -0.11633797 -0.10082337 0.04309853 -0.08732212 -0.06975743 0.040856604 0.0328658
0.07105782 -0.047395438 0.053463317 0.052464224 -0.032494206 -0.064892665 0.01956724 -0.07120094
-0.075087264 -0.03467159 -0.009910261 -0.011329005 0.0010829984 0.060649075 0.03520148 -0.11630029
-0.030496828 -0.047145613 -0.0038914229 -0.012666831 0.055539638 0.0027304066 -0.085489474 0.038996555
-0.08360694 0.058947273 -0.03981016 0.046348028 0.029078517 0.05748195 0.02184309 0.0072188154
-0.0039953026 0.012545714 -0.035279818 -0.01066847 -0.08136342 0.061076593 0.018169075 -0.00964582
-0.07838907 -0.05519135 0.013047613 0.09936098 -0.02657312 0.10373729 -0.104617916 -0.0018016398
0.00031820012 0.0965697 -0.03879266 -0.08358567 -0.06529345 -0.07776459 -0.031766627 -0.055625703
-0.0024075136 -0.0680384 0.0013914239 -0.041123416 -0.0048157945 -0.06422233 -0.08274259 0.096467674
-0.08304095 -0.061533026 -0.039975177 -0.12286134 0.040174495 0.01316689 0.011669883 0.037183
0.010437483 0.007761404 -0.0018284768 0.0075736493 -0.034078773 0.053313635 -0.049511883 -0.078249216
0.07254694 -0.04462133 0.0019192832 0.018146135 -0.06637194 0.03263811 -0.057072658 0.10855894
0.03927809 0.031341217 -0.019877508 0.08732897 -0.0044412236 0.0829472 0.053996257 -0.09225292
-0.026909059 0.046458956 -0.0017857937 -0.040362656 -0.023717573 0.07840648 -0.0365742 0.03043784
-0.05428182 -0.07735925 -0.0035147106 -0.016411338 -0.09214444 0.01337295 -0.12443911 0.0064011663
0.03431217 0.033615075 0.023793586 0.06864422 -0.013377572 -0.01984176 -0.07507992 -0.05667911
-0.040121872 0.030294038 0.050109748 0.04100477 -0.114163876 0.05717318 0.041608922 -0.036530145
-0.039281897 -0.039953247 0.05122385 0.01217236 -0.06003929 -0.02203811 -0.056665286 -0.1113218

fc2.bias f4 [128]
00000000: c3ed 3cbd 48ce a6bd c8aa 8cbf c6ea b03e
00000010: aaa4 72be aa8b 8e3b b069 94bd 520a 193f
00000020: c067 0b3a e23f 42bd c9e3 37be 5009 9abd
00000030: 2006 17bd e21a fbbd 8d69 39bc 8459 e03c
00000040: e91d 55be ccc1 6dbf 56b3 813d 5b09 08be
00000050: 64dd 5cbe a741 86bd af95 003d ec58 0c3f
00000060: 8777 a7bd 23bf 453f b55f 08bf 0273 4fbc
00000070: b6b2 ab3c 8e5a e3bc 2236 4dbf 47f4 4c3d
00000080: befd d53d b343 8c3e f327 20bd f156 f13e
00000090: f0d1 b4ba 5455 0e3b 35ec 62bd 87c0 46bd
000000a0: 6170 713c a686 a13e 52a2 fbbc 11c6 ed3e
000000b0: 4b37 b3bf 0982 823c 409c dfbc 3dbe 75bc
000000c0: cdd8 77bd 933f 92bd 2a4a cfbc 9c00 7abd
000000d0: 5cd5 c5bf f496 c33d fa08 e6bd 8b76 cabf
000000e0: 5da6 203c 1977 99bd 0c4a b2bc ed54 ae3c
000000f0: 3a09 79be 83f1 93bb 7d81 cb3e 5f81 8bbc
00000100: 8c1a 153e 5aba c63d 596f 68bd 6d3a 933d
00000110: 9389 68bd c5e1 87be e2f0 12bd 9267 323f
00000120: cf24 59bd 0503 e5bc a227 3f3b 7567 dabf
00000130: beb1 373d a8b3 193d 04ff 6fbd 6b12 2d3f
00000140: c7e7 103e 009d 8c3f 6ca9 5f3d 2638 8dbc
00000150: b144 a9bc 81ca 05bc cb72 e1bd 9324 fa3d
00000160: 1442 c5bb 391a d6bd e55d d33e 1950 14bd
00000170: 59a6 843c fda5 933e c4af 6b3d e260 ebbe
00000180: 8c91 babd a520 c3bd 58bb debc 4486 8cbe
00000190: c097 a4bd 659f a8bd aecb acbe 4586 19bf
000001a0: 69ba 9ebd 1315 80bf 0f2b f7bc 78a6 4abd
000001b0: 9c6c 47bd b817 bd3e 6630 eebd d408 a4bf
000001c0: fac4 8ebd 9cb6 ce3e 304f 1cbe dd87 243d
000001d0: 7ac1 8ebd 17af 903f 98fc 80ba bccb fbbe
000001e0: ece0 f1bd 7897 aabd 42ba 15be d302 d5bd
000001f0: c623 3f3f eaee 173d ba7c e83c ee57 d3bd
-0.046125185 -0.08144814 -1.0989618 0.34554118 -0.23695627 0.0043501453 -0.07246721 0.5978137
0.0005317889 -0.047424205 -0.17957987 -0.075213075 -0.036871076 -0.12260987 -0.011316669 0.027386434
-0.20812191 -0.92873836 0.06333034 -0.13284819 -0.21568829 -0.06555491 0.03139275 0.54823184
-0.08177095 0.77244776 -0.5327104 -0.012661697 0.02095924 -0.02775314 -0.80160725 0.05003765
0.10448788 0.273954 -0.0391006 0.47136644 -0.0013795476 0.002171834 -0.055401046 -0.048523452
0.014736266 0.3154804 -0.030717049 0.46440175 -1.4001249 0.015931146 -0.027296185 -0.01499897
-0.06050949 -0.07141032 -0.025303919 -0.061035737 -1.5455737 0.095502764 -0.11232181 -1.5817426
0.009805289 -0.07493419 -0.021763824 0.02128073 -0.24319926 -0.0045148744 0.3974723 -0.017029462
0.14560908 0.097035125 -0.056746814 0.07188878 -0.056771826 -0.26539436 -0.035874255 0.69689286
-0.05301362 -0.027955541 0.002916791 -1.7062823 0.044847243 0.03752485 -0.05859281 0.6760623
0.14150916 1.0985413 0.054604933 -0.017238688 -0.020662637 -0.0081659565 -0.11008223 0.12214007
-0.00601984 -0.1045422 0.41282573 -0.0362092 0.016192602 0.28837577 0.05754067 -0.45972353
-0.09109792 -0.09527711 -0.027188942 -0.27446187 -0.080367565 -0.08233527 -0.33749145 -0.59970504
-0.07750399 -1.0006431 -0.0301719 -0.049475163 -0.048687562 0.36932158 -0.11630325 -1.2815194
-0.06971164 0.40373695 -0.15264583 0.04016863 -0.069704965 1.1303433 -0.0009840904 -0.49178874
-0.118104786 -0.083296716 -0.14621833 -0.10400929 0.7466396 0.03709308 0.028379787 -0.10319506

fc3.weight f4 [6, 128]
00000000: 0caa 2dbd 1c4b 903a 122d 433f cea6 1a3f
00000010: b378 60c0 a7e7 4ebc 01e0 dbbc 6793 213f
00000020: 738e 003d 95ce ac3d 7d91 1bbf ca29 2d3e
00000030: 32cc 6f3d 2fbb 443d 98fd 1bbc 6d65 4c3d
00000040: c30e e03e 85f4 8241 ab4b ebbd 422c 953d
00000050: 46bc 453e 40d6 883c 7484 403d ed86 1dc0
00000060: 9c70 8cbd 1b87 3abf 3b92 7fbf 921b 9dbd
00000070: 2b8b 7f3c d547 9d3d d3f7 4a3e 007f 603d
00000080: 1de3 f33e 1241 953e 2e8b 2ebd f3d6 c83d
00000090: 943a a5bb cc52 8ebd 50f6 233d e40e a6bd
000000a0: e3bb acbd 9918 1b3e 8f45 81be 7054 df3d
000000b0: db00 23c1 5fb1 bcbd 70c2 11bd d275 933c
000000c0: c24b a9bc 7d5f 3e3c 5497 62bb bce3 83bd
000000d0: 47d2 343f e1ef 2340 742b 063e 64e2 9640
000000e0: ac4d f63c 29e4 6e3c a054 52bd ad6b 32bd
000000f0: cd0f bd3f 2164 35bd c67d e6be 3d58 5aba
00000100: 7817 2ebf ab60 133e c214 c33d fef6 743e
00000110: 576f 69bd b316 2bbf b8f6 213d e67b b1be
00000120: e486 3fbd 9cf4 a2bd 0ea8 763f 2841 023f
00000130: a23a cbbc 01bf 81bc 1dba cf3f 5e28 1ebf
00000140: 1ef4 a2bf b625 76bf 65a6 3340 183b a23b
00000150: c91a 50bd ab6d e9bb 97ce 2cbe db39 14be
00000160: 38b9 8cbd e89c 453d a95f 743e 379a 2e3c
00000170: 6021 24bd ab05 c23d 8cca 0e40 a867 ca3e
00000180: b5f0 123c fc7f 1fbd 47ff 4abd 92ad 1cbe
00000190: 063c 6c3d 1ef5 123c 857d 9abe c64f 6c40
000001a0: a764 a03c 3d03 60bf 7c52 203d 5569 23bd
000001b0: b164 b63f 5db5 51bd 4a7c e43e 5729 71bf
000001c0: 957f 27bc b306 373e e3e2 323e d4de f0bc
000001d0: ff75 cd3c c034 6bbf 9235 953c 5333 353f
000001e0: 36ae c03c b8a6 8e3d f337 a03c a4f5 413c
000001f0: cd47 40c0 50d1 8fbb a968 2fbd d0d5 1d40
00000200: a54a a6bd 3287 503d 5985 9cbf 3c13 a33e
00000210: dcff 17c1 3199 b4bc 4702 06bd 2232 123e
00000220: 80a8 203e 0204 94bd 3dc2 adc0 7d2b e5c0
00000230: 4bfd 953d 64ed d33c ca4d 603d 6ffd 333c
00000240: 2a5b 1cc0 7c88 d241 24a6 a7be 9fdd 313c
00000250: a63a 0cc0 e99e f43c 726c 5dbc 6460 e1c0
00000260: a741 9b3d a191 70bd 5216 80bd cb4e 28bd
00000270: 1d79 01bb 0226 61bd aa57 863f 35ef c23d
00000280: cd30 a13f c78e a0be d325 a63c 312a 083f
00000290: 015e cbbc 458d 0abd 0c28 8ebd 4909 a73b
000002a0: eeed ccbe 9c11 8d3e 7716 84bf ddbc 243f
000002b0: f9e4 0541 1cd4 21bd 762f aa3c a9e7 c23d
000002c0: 06cb f93d f0ad 8ebc 37e5 02bd c83c 033d
000002d0: 1a24 0fc1 4667 8f40 b537 18bf 753e 793d
000002e0: 335d 503b 60c9 ebbc 7a01 323c fe91 a13c
000002f0: 01c0 fe3d 309e 233c c7ac 9a3c d3b0 8c3d
00000300: a263 023f 646f 153f 6dc4 5740 9d12 64bf
00000310: a027 3bbd 54b8 99c0 ca80 313c bc22 613f
00000320: 1985 3bbd ae20 c1bf 5e17 843f 4d07 a1c0
00000330: 9401 b5bd ee83 af3d 8e95 c23f 3368 44bf
00000340: 8e1d 28c0 6b84 9dbc 897e 5140 709d 9e3c
00000350: a690 73bd b757 713c 105e 08bf a8da ef3e
00000360: 2161 01bd aff5 8e3d 2255 48be 0cbb ee3c
00000370: 0806 09b9 5d47 00bf 68a0 0440 3c29 8dbe
00000380: dcd3 913c bf74 ab3d f5fd cc3c 7039 8abf
00000390: 20a2 693d 9a88 83bb ebbc 10bf 1751 7abe
000003a0: 33ed 89bd 0cd3 c8be 9014 c0bd 7a6a e13c
000003b0: 9ab3 ad3f 330c 10be 526f 1ac1 ea0a 91c1
000003c0: 9561 7dbd c5d0 90bf 4762 8640 92d8 6abd
000003d0: 88aa d93d fd55 d83d 4de7 523d 4542 a2bf
000003e0: 2248 edbc 582d 9dbd 684a ebbc 116e 993d
000003f0: 629a bfc0 20d4 88bc 5c6f 85bd ec06 2a40
-0.042398497 0.0011008712 0.76240647 0.60410774 -3.507367 -0.012628472 -0.026840212 0.63115543
0.03138585 0.0843784 -0.6076887 0.16910473 0.058544345 0.048030075 -0.009520911 0.049901415
0.43761262 16.369394 -0.11489042 0.07283832 0.19310102 0.016703725 0.047001317 -2.4613602
-0.06857416 -0.72862405 -0.99832505 -0.07671274 0.015597145 0.076797165 0.198211 0.054808617
0.4763421 0.29151207 -0.0426132 0.09806623 -0.0050423834 -0.06949386 0.040029824 -0.08108309
-0.08434274 0.15146102 -0.25248381 0.10904777 -10.187709 -0.09213518 -0.03558582 0.018000517
-0.020666007 0.011619446 -0.0034575062 -0.06439921 0.7063336 2.561516 0.13102514 4.7151356
0.030066334 0.014580765 -0.051350236 -0.04355972 1.4770447 -0.044284943 -0.45017833 -0.00083291886
-0.6800456 0.14392345 0.095254436 0.23922345 -0.056990948 -0.6683151 0.03954193 -0.3466484
-0.0467595 -0.07956812 0.9635018 0.5088067 -0.024808232 -0.015838148 1.6228672 -0.61780345
-1.2730749 -0.9615129 2.807031 0.004950892 -0.050806794 -0.007123669 -0.16875683 -0.14475195
-0.06871265 0.04824534 0.23864616 0.010656885 -0.04007089 0.09473737 2.2311125 0.39532208
0.008968522 -0.038940415 -0.049559858 -0.15300587 0.05767443 0.008969573 -0.3017389 3.692369
0.019579245 -0.8750494 0.039141163 -0.039895374 1.4249479 -0.051198352 0.44626075 -0.94203705
-0.010223289 0.1787365 0.17469363 -0.029403128 0.025080679 -0.91877365 0.01821402 0.7078144
0.02352057 0.06965393 0.019557929 0.01183835 -3.0043824 -0.0043889657 -0.04282442 2.466175
-0.08119706 0.050910182 -1.2228194 0.31850612 -9.499966 -0.022045704 -0.032717016 0.14276937
0.15689278 -0.07227327 -5.4299607 -7.1615586 0.073237024 0.025870033 0.054761685 0.010985716
-2.4430642 26.316643 -0.32743943 0.010856061 -2.1910796 0.02986093 -0.013514625 -7.0430164
0.075808816 -0.058732633 -0.06254257 -0.041090768 -0.0019756027 -0.054967888 1.0495503 0.09518281
1.2593018 -0.3135893 0.020281708 0.5318938 -0.024825098 -0.03382613 -0.06941232 0.0050975424
-0.40025276 0.27552497 -1.0319356 0.6435068 8.368402 -0.039508924 0.020774584 0.09516842
0.12196927 -0.017416924 -0.031956878 0.032040387 -8.946314 4.4813566 -0.5946 0.06085058
0.0031793832 -0.028782547 0.01086461 0.019722935 0.124389656 0.009986445 0.018881215 0.06869664
0.5093328 0.58373094 3.3713639 -0.890909 -0.045692086 -4.803751 0.010833928 0.87943625
-0.04578123 -1.5088098 1.0319631 -5.032141 -0.08838192 0.085700855 1.520189 -0.76721495
-2.6268039 -0.01922818 3.273348 0.019362181 -0.05946412 0.0147303855 -0.5326853 0.4684651
-0.03158677 0.06980454 -0.19563726 0.029141925 -0.00013067585 -0.5010889 2.0722904 -0.27570522
0.017801218 0.08371877 0.02502344 -1.0798779 0.05703938 -0.004014087 -0.56538266 -0.24444996
-0.06734695 -0.39223516 -0.09378922 0.027516592 1.3570435 -0.14067154 -9.652178 -18.13033
-0.06186064 -1.1313711 4.1994967 -0.057335444 0.106282294 0.10563276 0.051490117 -1.2676474
-0.02896506 -0.07674664 -0.028722003 0.074916966 -5.9875956 -0.016702712 -0.06515381 2.6566725

fc3.bias f4 [6]
00000000: e935 e4bf d190 0c3f 38df bbbe 2264 8cbf
00000010: 500b 17bd f545 0f3e
-1.7828952 0.5490847 -0.3669374 -1.0968058 -0.036876023 0.1399153

fc4.weight f4 [6, 6]
00000000: bfdd 95c0 a4fe ce3f ac79 14bb 3094 47c0
00000010: 05d9 863e b49a c63f d5dd dcbd 44e3 c5c1
00000020: 64d7 5f3f 458a 1bbf 5b41 8bbe cac0 51bf
00000030: 5f22 cf3e 95ca 01bf f7d9 8e3e 7756 7c3f
00000040: 3749 79be 351f 5fbf 22a9 1b3f d4c8 dcbe
00000050: 5629 b2be 6967 d6c0 a0eb a3be da4d 09bf
00000060: 3aa1 ec3d d50c 54bf 45e8 60c1 7001 cabe
00000070: f2a8 9e3e 2d52 f5be 784b 95c0 922b cd3f
00000080: 043f bf3b 0363 4bc0 792d 1c3d dd79 3fc2
-4.6833186 1.617146 -0.002265553 -3.1184196 0.26337448 1.5515962 -0.107844986 -24.73597
0.87438035 -0.6075786 -0.271983 -0.819348 0.4045591 -0.5069974 0.2790067 0.98569435
-0.24344335 -0.87156993 0.6080495 -0.4312197 -0.34797162 -6.7001233 -0.32015705 -0.5363442
0.11554189 -0.8283208 -14.056706 -0.39454222 0.3098827 -0.47914258 -4.6654625 1.6028922
0.0058363695 -3.1779182 0.038129304 -47.869007

fc4.bias f4 [6]
00000000: 4afa 8ec0 1e70 04c1 c6f8 ca3f 2b65 8640
00000010: 4d5d 0341 7151 68c0
-4.468053 -8.277372 1.585717 4.1998496 8.2102785 -3.6299708
