data/model/diagnosis/best_pH_LSTM_model.pth (torch, 141003 bytes, 12 tensors)

fc1.weight f4 [128, 7]
0	0xbe9b02a0	-0.3027544
1	0xbf465cd1	-0.77485377
2	0xbf154a84	-0.58316827
3	0xbcb43549	-0.021998065
4	0xbf0046f8	-0.5010829
5	0xbea0ccd8	-0.31406283
6	0x3ec8031d	0.39064875
7	0x3abb5ddb	0.0014294939
8	0xbdca14f0	-0.09867275
9	0x3e02c6f1	0.12771203
10	0xbed0e2e0	-0.40798092
11	0xbfc36b3a	-1.5267098
12	0x3e0c09a1	0.13675548
13	0xbf188456	-0.5957693
14	0xbe293498	-0.16523969
15	0x3dd7ea87	0.105427794
16	0x3e0710d9	0.1319002
17	0x3e2b372b	0.16720264
18	0xbdd0f59c	-0.10203096
19	0x3e198d0d	0.14995213
20	0xbff12b7b	-1.8841394
21	0x3d4f08e0	0.050545573
22	0xbe880b3e	-0.26571077
23	0x3dd3ef50	0.103483796
24	0xbd68a858	-0.05680117
25	0xbc9d11f0	-0.019173592
26	0xbde175fc	-0.11008832
27	0xbd262e28	-0.04057136
28	0x3d64f6cc	0.055899426
29	0x3e029f90	0.12756181
30	0xbcaff54e	-0.021479275
31	0xbdd7b564	-0.105326444
32	0xbe82c990	-0.25544405
33	0xbe660ef4	-0.22466642
34	0xc0980934	-4.7511234
35	0xbe5ed1d0	-0.21759725
36	0xbf212ad9	-0.62956005
37	0xbed2d434	-0.41177523
38	0x3eb736be	0.35783952
39	0xbf31f559	-0.69514996
40	0xbf0b4a87	-0.54410595
41	0xbeef3c55	-0.46725717
42	0xbe45cecd	-0.1931717
43	0xbe8b1ad8	-0.27168918
44	0x3e4c0241	0.19922735
45	0x3d216eb5	0.03941222
46	0x3dc788dc	0.09742901
47	0xbea9d00e	-0.33166546
48	0x3f4ed43b	0.8079259
49	0x3d681ec4	0.056669965
50	0x3db19a9d	0.08672068
51	0x3deb57e5	0.11491374
52	0x3df66c68	0.120323956
53	0xbd9fefef	-0.078094356
54	0xbd16c6dd	-0.036810745
55	0xbde5514c	-0.11197147
56	0xbee073de	-0.438384
57	0x3dbf3867	0.0933693
58	0xbe1f8b28	-0.15580428
59	0xbe8e88f1	-0.27838853
60	0xbd41250e	-0.04715448
61	0xbe0617e4	-0.13095051
62	0xbe185731	-0.14877011
63	0xbebd6016	-0.3698737
64	0x3c5a6ddf	0.013331859
65	0xbdface38	-0.12246364
66	0x3deb2173	0.11480989
67	0xbe26dc24	-0.16294914
68	0x3dd76d04	0.1051884
69	0x3e75b5f0	0.23995185
70	0x3e467a3b	0.19382565
71	0xbdb96b96	-0.090537235
72	0xbe2673db	-0.16255133
73	0x3d2b8c99	0.04188213
74	0xbe01f56b	-0.12691276
75	0xbe18b6e1	-0.14913513
76	0xc0854fe4	-4.1660023
77	0xbe74153e	-0.23836228
78	0xbdca6f10	-0.09884465
79	0x3ed407e6	0.41412276
80	0x3d5e468c	0.054266497
81	0x3e5d5cab	0.21617381
82	0xbdf3a14d	-0.11896
83	0xbfe6ccad	-1.8031212
84	0xbe1e0e8e	-0.1543524
85	0xbe9516d9	-0.29118994
86	0x3dfaa285	0.122380294
87	0x3e49f568	0.19722521
88	0x3e09547e	0.13411137
89	0x3e378704	0.17922598
90	0x3cf57a50	0.02996555
91	0xbf1d49c3	-0.61440676
92	0xbefac0c5	-0.48975196
93	0xbf2ba997	-0.6705565
94	0xbf7e288c	-0.9928062
95	0x3e9173fa	0.28408796
96	0xbf6a6884	-0.9156573
97	0xbf5f3f2f	-0.87205786
98	0x3ea3d0d5	0.31995264
99	0x3ec54c1f	0.38534638
100	0x3eaa5d5d	0.33274356
101	0x3f0eac8a	0.55732024
102	0x3fa10017	1.2578152
103	0x3ef29204	0.47377026
104	0xbfd9ce65	-1.7016112
105	0xbe0c97b4	-0.13729745
106	0xbd3e3938	-0.046441287
107	0xbeba5a99	-0.36397246
108	0x3e6a4652	0.22878388
109	0x3dde3c70	0.10851371
110	0x3e4056ca	0.18783107
111	0xbe9c3223	-0.30507
112	0xbf053e28	-0.5204797
113	0xbf1017ce	-0.56286323
114	0xbd0ddc63	-0.034634005
115	0xbcc195f7	-0.02363108
116	0xbe08e1a0	-0.13367319
117	0xbe9cd0de	-0.30628103
118	0xbe323ba3	-0.17405562
119	0xbe51cc38	-0.2048806
120	0xbe872577	-0.2639577
121	0xbf1a846b	-0.60358304
122	0x3e6e51a6	0.23273334
123	0xbf4a194d	-0.78944856
124	0xbea97f80	-0.33105087
125	0xbf59112e	-0.8479184
126	0x3df95e44	0.12176183
127	0x3de20260	0.11035609
128	0xbea2cd20	-0.31797123
129	0xbe99ebea	-0.300628
130	0xbeb6bd6c	-0.35691392
131	0x3e42a166	0.19006881
132	0xbe279e0c	-0.16368884
133	0xbe51c4fe	-0.20485303
134	0x3eb1f49a	0.3475693
135	0x3e8d43ce	0.27590793
136	0xbe2a3c9b	-0.16624682
137	0xbdc9a014	-0.098449856
138	0xbd93d747	-0.07218795
139	0x3e9329a0	0.28742695
140	0x3d27cbc0	0.040965796
141	0x3e37806a	0.1792008
142	0x3e3bca0a	0.1833879
143	0xbe919286	-0.284321
144	0x3dd500b8	0.10400528
145	0xbea8bd8e	-0.3295712
146	0x3debdfd0	0.11517298
147	0x3dae068a	0.08497341
148	0xbe5751bc	-0.21027273
149	0x3e207c5e	0.15672442
150	0x3e5ad245	0.21369274
151	0xbec8dd9d	-0.39231578
152	0xbec93094	-0.39294875
153	0xbfca49d3	-1.5803779
154	0xbe480e9d	-0.19536825
155	0xbe4d8ea7	-0.20073949
156	0x3cfe87c4	0.031070597
157	0xbe8ac9e6	-0.2710716
158	0xbf224ba7	-0.63396686
159	0xbdc90290	-0.09814942
160	0x3f50a139	0.81496006
161	0x3ee26fa2	0.44225794
162	0x3f045935	0.5169862
163	0x3f28a028	0.6586938
164	0x3e9731bf	0.2953014
165	0x3f1f79f2	0.6229545
166	0x3f1b9d8f	0.6078729
167	0x3f04031a	0.5156723
168	0xbd9c7df0	-0.07641208
169	0x3e098cae	0.13432571
170	0xbdaf5280	-0.085606575
171	0x3e9d0387	0.30666754
172	0x3dbe63a0	0.09296346
173	0xbe408195	-0.18799432
174	0xbc3686a0	-0.011140496
175	0xbeab10e6	-0.3341133
176	0x3e32acea	0.17448774
177	0xbd7c8248	-0.061647683
178	0xbea2e0db	-0.31812176
179	0xbd3ded10	-0.04636866
180	0xbe875099	-0.2642868
181	0xbc69f020	-0.014278442
182	0x3e2aa480	0.16664314
183	0x3d75867c	0.059942707
184	0xbe4231f6	-0.18964371
185	0xbb46cc40	-0.0030334145
186	0xbdb27085	-0.08712868
187	0x3e1fa0ea	0.15588728
188	0x3dad1043	0.08450367
189	0x3ea1e34b	0.31618723
190	0x3e4816da	0.19539967
191	0xbeb2f53c	-0.34952724
192	0x3ea375af	0.31925723
193	0xbe701182	-0.23444179
194	0xbc0bfaa0	-0.00854364
195	0xbebc4d42	-0.36777693
196	0x3bdf9c1c	0.0068240296
197	0xbd669499	-0.056294058
198	0xbe9099e0	-0.28242397
199	0xbdf34cfb	-0.11879917
200	0xbdb32bbf	-0.08748578
201	0xbe36888f	-0.1782553
202	0xbd932606	-0.07184987
203	0xbe3c20d9	-0.18371905
204	0xbea7200e	-0.32641643
205	0x3e73141a	0.23738137
206	0xbea6ed5c	-0.32602966
207	0xbddb2128	-0.106996834
208	0x3ea50583	0.32230768
209	0x3e233e5e	0.1594176
210	0xbea4865c	-0.32133758
211	0xbe82ae6f	-0.25523707
212	0xbe0abe53	-0.13549165
213	0x3eb9988d	0.362492
214	0x3ea7ffd9	0.32812384
215	0xbe37e509	-0.17958464
216	0x3e37314e	0.17889902
217	0xbe94e3e4	-0.29080117
218	0xbd8c5fec	-0.06854233
219	0xbd6a3c20	-0.057186246
220	0xbe0a1cbf	-0.13487528
221	0x3dc5fc04	0.09667209
222	0xbd146c00	-0.03623581
223	0xbe86cee4	-0.2632972
224	0x3e26b886	0.16281328
225	0xbe30b10b	-0.17255037
226	0xbefd268f	-0.4944348
227	0x3e6ab1de	0.22919413
228	0xbc9e6174	-0.019333579
229	0x3e62bba1	0.22141887
230	0xbf1f50cf	-0.6223268
231	0xbe9507e6	-0.2910759
232	0xbe5737ab	-0.2101733
233	0x3c0cec20	0.008601218
234	0x3e8c50bb	0.27405342
235	0xbd945720	-0.0724318
236	0x3eac74bb	0.33682808
237	0xbeaf1218	-0.34193492
238	0xbe714468	-0.23561251
239	0xbf004456	-0.5010427
240	0xbe1562bc	-0.14588445
241	0xbecf399d	-0.40473643
242	0xbe7be5f3	-0.24599437
243	0xbb6c22aa	-0.0036031404
244	0x3fe5d16a	1.7954533
245	0x3e06cb2e	0.13163444
246	0xbe2ab7c5	-0.16671665
247	0xbe8a0aba	-0.2696131
248	0x3d192110	0.037385046
249	0xbe20573d	-0.15658279
250	0xbe926b22	-0.2859736
251	0xbe1540fc	-0.14575571
252	0xbefeff9b	-0.49804386
253	0x3e26ff73	0.16308384
254	0x3e1d2fc9	0.1535026
255	0xbf0b1e5b	-0.54343194

fc1.bias f4 [128]
0	0xbe8bb8b3	-0.27289352
1	0x3f6f84fe	0.93562305
2	0x3f617e61	0.88083464
3	0xbea3605b	-0.3190945
4	0x3f33d190	0.7024164
5	0x3cffa76a	0.031207759
6	0xbf256c48	-0.6461835
7	0xbe8bae69	-0.27281502
8	0x3c2eb71e	0.010663776
9	0xbe3a1948	-0.18173707
10	0x3f07b0d0	0.5300417
11	0x3f6012f6	0.8752893
12	0xbe60e48e	-0.21962187
13	0x3f006a44	0.5016215
14	0xbfe9eca4	-1.8275342
15	0xbe635410	-0.22200036
16	0x3c815695	0.015788356
17	0x3e870611	0.26371816
18	0xbea0bc52	-0.31393677
19	0xbec21453	-0.3790613
20	0xbe6212f5	-0.22077544
21	0x3dc58d31	0.09646071
22	0xbe730247	-0.23731337
23	0xbfbaa680	-1.4582062
24	0xbe82dd30	-0.25559378
25	0xbbe86e80	-0.0070932508
26	0xbe815e5c	-0.25267303
27	0xbe888233	-0.26661834
28	0x3bdc30a8	0.0067196675
29	0xbea4b003	-0.32165536
30	0xbe9a36e4	-0.30120003
31	0xbd93eb10	-0.07222569
32	0xbcf79020	-0.030220091
33	0xbd803fa4	-0.062621385
34	0xbf672192	-0.902856
35	0xbeba8e6a	-0.36436778
36	0xbe0dab29	-0.13834824
37	0x3d31c14e	0.04339724
38	0xbe8d24b1	-0.27567056
39	0xbe0d88e7	-0.13821755
40	0xbe9f8be8	-0.31161427
41	0x3e8a8d89	0.27061108
42	0xbe70b7c2	-0.23507598
43	0x3f77f1ac	0.96853137
44	0xbf856030	-1.0419979
45	0xbe955bb1	-0.29171517
46	0xbe97918c	-0.2960323
47	0x3d21cd9c	0.039502725
48	0x3f087671	0.5330573
49	0xbe81eced	-0.25376073
50	0x3d30ba03	0.043146145
51	0xbf5dcdd1	-0.86642176
52	0x3f901a05	1.125794
53	0x3f816a7a	1.0110619
54	0xbced8b08	-0.02899696
55	0xbed0ac24	-0.40756333
56	0x3bb2b940	0.0054542124
57	0xbf7650e6	-0.9621719
58	0xbe87f80b	-0.2655643
59	0x3f158d6a	0.58418906
60	0xbcd79d86	-0.02632023
61	0xbe3571a3	-0.1771913
62	0x3f5f1e47	0.87155575
63	0x3e6375e0	0.22212934
64	0x3f553e6a	0.8329836
65	0x3cb1a513	0.021685159
66	0x3f3b5248	0.73172426
67	0xbdceff40	-0.10107279
68	0xbea7b410	-0.32754564
69	0xbe0a0497	-0.13478313
70	0x3e494617	0.19655643
71	0x3d9e9993	0.07744136
72	0xbe830cc3	-0.25595674
73	0xbe3e17b4	-0.1856373
74	0xbed08a65	-0.40730587
75	0x3d01c442	0.031681307
76	0xbea5d761	-0.32390884
77	0x3fb90def	1.4457377
78	0xbd07c626	-0.033147953
79	0xbe523ff0	-0.20532203
80	0xbec0e696	-0.37675923
81	0xbe25ba43	-0.16184334
82	0xbe2a9d7e	-0.16661641
83	0xbeb2f2a8	-0.34950757
84	0xbd869619	-0.065715976
85	0xbf4a7695	-0.7908719
86	0xbe4787d5	-0.1948541
87	0x3f68e483	0.9097368
88	0xbe6d3b24	-0.23167092
89	0xbe3ee435	-0.18641742
90	0x3b839593	0.0040156334
91	0xbd45c980	-0.04828787
92	0xbf35185c	-0.70740294
93	0xbcbbd637	-0.022929294
94	0xbe47c9ab	-0.19510524
95	0xbf0170f0	-0.50562954
96	0x3e4abbaf	0.19798158
97	0x3ef34e6d	0.47520772
98	0x3f2b1a5a	0.66837084
99	0x3e799a4a	0.24375263
100	0x3f5ccbb4	0.86248326
101	0xbe5a067e	-0.21291539
102	0x3d4a8319	0.04944143
103	0xbe3e7d47	-0.18602477
104	0xbf187052	-0.5954639
105	0x3f0a0436	0.53912675
106	0xbea7b4a9	-0.3275502
107	0xbf1049b7	-0.5636248
108	0x3d58fa72	0.05297322
109	0xbfb0ff93	-1.3827995
110	0xbf48edea	-0.7848803
111	0x3e3424d9	0.17592181
112	0x3f6577ae	0.8963574
113	0xbf78f488	-0.97248125
114	0x3d107bea	0.035274424
115	0x3e9bdbb8	0.3044107
116	0xbcf56880	-0.029957056
117	0xbe907103	-0.2821122
118	0xbe9046f2	-0.28179127
119	0xbe76d3d6	-0.24104246
120	0xbe861b20	-0.2619257
121	0xbeb94986	-0.36188906
122	0xbcfbbf30	-0.030730814
123	0xbd971574	-0.07377139
124	0xbea6b62a	-0.32560855
125	0xbea9f8e9	-0.33197716
126	0xbe8f2ed7	-0.27965423
127	0xbe622d2b	-0.22087543

fc2.weight f4 [128, 128]
0	0x3bf322a6	0.007419902
1	0x3d4ce562	0.050023444
2	0xbda06ce1	-0.07833267
3	0x3d04656e	0.032323293
4	0x3d737225	0.05943503
5	0x3da5b317	0.08090799
6	0x3d5d4246	0.05401828
7	0x3c9baaa2	0.019002263
8	0xbcfd4dd2	-0.030920897
9	0x3d002c34	0.031292155
10	0xbc7aa998	-0.015299223
11	0x3c1d81a5	0.009613429
12	0x3c87fcfb	0.016600123
13	0xbde09852	-0.10966553
14	0xbdd536db	-0.104108535
15	0xbd019204	-0.031633392
16	0xbdd6bcd3	-0.10485234
17	0x3d416cbe	0.047222845
18	0x3da8c1e3	0.08240106
19	0xbd94e887	-0.072709136
20	0xbd0ca268	-0.03433457
21	0xbc0e085b	-0.008668984
22	0xbd3bbe62	-0.04583586
23	0x3c30faf3	0.010802018
24	0x3cb70404	0.022340782
25	0x3a666300	0.0008788556
26	0xbb84ae14	-0.004049072
27	0x3d8816c5	0.06644968
28	0xbc809858	-0.015697643
29	0xbda58505	-0.08082012
30	0xbd0c1743	-0.03420187
31	0xba8a3100	-0.0010543168
32	0xbd262bb8	-0.040569037
33	0x3d9a0617	0.07520693
34	0x3c73b6b8	0.0148751065
35	0x3d22bc96	0.03973063
36	0xbd1ed6c5	-0.03877904
37	0xbda91a6c	-0.08256993
38	0xbd1db6cd	-0.03850441
39	0xbcdbdc16	-0.026838344
40	0x3d45aeab	0.04826228
41	0xbdbff644	-0.09373143
42	0xbc8dd35d	-0.0173127
43	0x3c3a637e	0.01137626
44	0xbd17b0a5	-0.037033696
45	0xbd13fb55	-0.03612836
46	0xbd025d6b	-0.03182737
47	0xbd52dfb0	-0.051482856
48	0xbcc70a6c	-0.024296962
49	0x3d0efed2	0.034910984
50	0xbcbfe439	-0.023424255
51	0x3d676a2e	0.056497745
52	0xbc70689d	-0.014673379
53	0xbbebf5a5	-0.007200914
54	0xbdc478ac	-0.09593329
55	0xbd3fc5d8	-0.046819538
56	0x3d3f02aa	0.0466334
57	0xbd8f59c5	-0.06999544
58	0x3d7faf57	0.062423076
59	0x3d4e3bbc	0.050349936
60	0x3da6d761	0.08146549
61	0xbd598f88	-0.053115398
62	0xbb39a031	-0.0028324241
63	0x3c118d5c	0.0088838
64	0xbde46abd	-0.11153171
65	0x3c2da250	0.01059778
66	0x3d54223a	0.051790453
67	0x3c3d0160	0.011535972
68	0x3da1791b	0.07884427
69	0xbd4af3b5	-0.049548823
70	0xbd4e27fb	-0.050331097
71	0x3bd0854f	0.006363548
72	0xbcfe4eb4	-0.031043388
73	0xbc7e1d2b	-0.015509884
74	0xbc1d0c05	-0.009585385
75	0xbdeed9f1	-0.11662663
76	0xbd716c1a	-0.058940984
77	0xbd1a077c	-0.037604794
78	0xbd133f48	-0.03594902
79	0xbbbd5ba6	-0.0057787476
80	0x3d7c47b6	0.061591826
81	0xbdb70498	-0.08936423
82	0xbd9a2750	-0.075270295
83	0xbdb18073	-0.08667078
84	0x3c889b35	0.016675571
85	0xbd2db270	-0.0424065
86	0x3d23212a	0.03982655
87	0xbda0e341	-0.07855845
88	0xbd9ccaa5	-0.07655839
89	0xbda9b480	-0.08286381
90	0xbdfb330e	-0.12265597
91	0x3cb579e4	0.022152849
92	0xbdb285d6	-0.087169334
93	0xbcc37dfd	-0.023863787
94	0xbc166dc8	-0.009181447
95	0x3c5c58f8	0.013448946
96	0xbd45fb33	-0.048335265
97	0xbd312215	-0.043245394
98	0xbdfe8da4	-0.124293596
99	0xbcc33420	-0.023828566
100	0xb94737f8	-0.00018998969
101	0xbcf6deff	-0.03013563
102	0xbd7c2920	-0.061562657
103	0xbcc5fb57	-0.0241677
104	0x3d9cd685	0.07658104
105	0xba9f8bb9	-0.0012172378
106	0x3d0bc0d4	0.034119442
107	0x3c822ff0	0.015891999
108	0xbd846eac	-0.064664215
109	0x3d1d687c	0.038429722
110	0x3d7f4456	0.06232103
111	0x3cc6bde1	0.024260463
112	0xbdad3f98	-0.08459395
113	0x3d84d9c7	0.0648685
114	0xbd2c056b	-0.041997354
115	0xbdb911b8	-0.09036583
116	0x3c9653b0	0.018350452
117	0xbd22e13d	-0.039765585
118	0xbcf6fba2	-0.030149285
119	0xbcc480d1	-0.023987206
120	0xbd4d06ca	-0.050055303
121	0xbd85002b	-0.06494173
122	0xbd3a2d95	-0.045453627
123	0xbcd1b9c2	-0.025601272
124	0xbacc46c0	-0.001558505
125	0x3d82e6c7	0.063916735
126	0x3dab44c5	0.08362726
127	0xbda960cb	-0.08270415
128	0x3cdffce0	0.02734226
129	0xbdc6623d	-0.09686706
130	0xbcc35251	-0.023842962
131	0xbd24d217	-0.04023942
132	0xbbae9d0c	-0.00532878
133	0xbc9119be	-0.01771247
134	0x3d3ea387	0.04654267
135	0xbdc7f0ec	-0.09762749
136	0x3cc8b764	0.02450151
137	0xbcd41fda	-0.025894094
138	0xbce06e5d	-0.027396375
139	0xbdfeaa77	-0.12434857
140	0x3d93bf1a	0.07214184
141	0xbe167cd1	-0.14696051
142	0xbcca264d	-0.024676466
143	0x3c5b6978	0.013391845
144	0x3ba8f647	0.0051563117
145	0xbd9620cb	-0.073304735
146	0xbcbe64bc	-0.023241393
147	0x3bc9e4a9	0.0061612916
148	0x3d3446b2	0.044012733
149	0xbe135760	-0.143888
150	0xbddab286	-0.10678582
151	0xbd75d902	-0.060021408
152	0x3d128680	0.0357728
153	0xbd627bd4	-0.055293873
154	0xbda12bdc	-0.07869694
155	0x3cd1bf30	0.02560386
156	0x3c9e0f4c	0.019294403
157	0x3d2152c2	0.039385565
158	0x3c944ff0	0.018104523
159	0x3c096410	0.008385673
160	0x3d2f8362	0.042849906
161	0xbd968afa	-0.073507264
162	0x3d7b08d5	0.06128772
163	0x3bed3a20	0.007239595
164	0xbd691e3c	-0.0569136
165	0xbd60bfc8	-0.054870397
166	0xbc566167	-0.013084746
167	0x3cb6cfcc	0.022315882
168	0xbb7c7008	-0.0038518924
169	0xbbb7c2a3	-0.0056079193
170	0xbd3b5c9f	-0.045742627
171	0xbd4dce93	-0.050245833
172	0xbdb584f0	-0.088632464
173	0x3dcf824c	0.10132274
174	0x3d88c787	0.06678682
175	0xbd643aab	-0.055720013
176	0xbe0ea10a	-0.13928619
177	0xbda9c326	-0.08289175
178	0xbda34497	-0.07972067
179	0xbd037c73	-0.032101106
180	0xbe0db147	-0.13837157
181	0x3d2f196b	0.04274885
182	0xbe011c6d	-0.126085
183	0xbc55535f	-0.0130203655
184	0x3daaff27	0.08349448
185	0xbd6f44c6	-0.058415197
186	0x3cb341c2	0.021881942
187	0xbd8000c8	-0.06250149
188	0x3dec4969	0.115374394
189	0xbc81e6e8	-0.015857175
190	0x3cab719d	0.020928198
191	0x3d865635	0.065594114
192	0xbd409bb6	-0.047023498
193	0xbd6dfb8c	-0.058101222
194	0xbdd690ca	-0.10476835
195	0x3d26738a	0.04063753
196	0xbd49facf	-0.049311455
197	0x3d9dbc85	0.07701973
198	0xbd36ee79	-0.04466102
199	0x3d11a43f	0.035557028
200	0xbca42185	-0.020035515
201	0xbbba14d8	-0.0056787543
202	0x3d8956cb	0.067060076
203	0xbc895b0c	-0.016767047
204	0xbc6a9bf8	-0.014319412
205	0xbda2f15c	-0.07956192
206	0x3d2d9e5d	0.042387355
207	0xbdd3206f	-0.103089206
208	0xbd787580	-0.06065893
209	0xbd7f88aa	-0.062386192
210	0x3c62e9c8	0.013849683
211	0xbd6c9636	-0.05776044
212	0x3d3b4ee2	0.045729525
213	0xbd8369f1	-0.06416691
214	0xbd509c76	-0.050930463
215	0x3c0772b0	0.00826709
216	0xbd8064c1	-0.06269217
217	0x3da854f7	0.08219331
218	0x3dc3a711	0.0955335
219	0xbb630100	-0.0034638047
220	0xbbcf3cf6	-0.006324406
221	0xbd17d4a0	-0.03706801
222	0x3ca53240	0.020165563
223	0xbc07d39c	-0.008290198
224	0xbc44f763	-0.012021872
225	0xbd4db737	-0.050223555
226	0xbdba1ca1	-0.09087492
227	0xbe04e671	-0.12978531
228	0xbe1a94e3	-0.15095858
229	0xbd2dc278	-0.042421788
230	0xbdd5f325	-0.10446767
231	0x3dd5efe2	0.10446145
232	0x3ddcc92c	0.10780558
233	0x3c813be0	0.015775621
234	0x3d58817a	0.052857853
235	0x3d2fe24a	0.042940415
236	0xbdd1107a	-0.10208221
237	0x3b48da32	0.0030647633
238	0xbd66fb64	-0.05639209
239	0x3d3b856a	0.04578153
240	0xbdbecbef	-0.09316241
241	0x3dbeb68f	0.09312164
242	0xbdf97001	-0.12179566
243	0xbd5ee4f7	-0.054417577
244	0xba83bbc0	-0.0010050461
245	0xbdb4b2b2	-0.08823146
246	0x3d79bde2	0.060972102
247	0x3d3af9ad	0.045648266
248	0x3d99d59d	0.075114466
249	0xbd637dae	-0.05553978
250	0xbd95d403	-0.07315829
251	0x3cbe3b27	0.023221565
252	0xbd8e28ea	-0.069413975
253	0xbda858f1	-0.08220089
254	0xbced6441	-0.028978469
255	0xbd7f762c	-0.062368557

fc2.bias f4 [128]
0	0xbd8f8aa2	-0.07008864
1	0x3be4aa78	0.0069783293
2	0xbf8281c4	-1.0195851
3	0xbc31ccc7	-0.010852045
4	0xbebf794a	-0.37397224
5	0xbc8ff6f6	-0.017573815
6	0xbdb7c48a	-0.08973034
7	0xbf4d4ead	-0.80198175
8	0x3e947c83	0.29001245
9	0xbdeeefbc	-0.116668195
10	0x3f1ed3a9	0.6204172
11	0xbdc37e39	-0.095455594
12	0xbe9ef6eb	-0.31047758
13	0xbf350d66	-0.7072357
14	0xbeb1aef6	-0.34703797
15	0xbd644455	-0.05572923
16	0xbdb20277	-0.086918764
17	0xbf4106fa	-0.7540127
18	0x3f346bcb	0.7047698
19	0xbf75826d	-0.9590214
20	0xbe08cd1c	-0.13359493
21	0xbf291d14	-0.66059995
22	0x3defab2a	0.11702569
23	0xbe29fb06	-0.16599664
24	0xbd970ee8	-0.0737589
25	0xbedc96a7	-0.4308369
26	0xbd8463cf	-0.064643495
27	0xbfd0662b	-1.6281179
28	0xbdacd843	-0.08439686
29	0xbf96e8b0	-1.178976
30	0xbfbaba9f	-1.4588202
31	0xc025ae22	-2.5887532
32	0x3c9a7a9e	0.018857297
33	0x3f005591	0.50130564
34	0xbdb5571b	-0.08854505
35	0x3eddd69b	0.43327793
36	0xbf392457	-0.72321075
37	0xbf4cb3cb	-0.7996184
38	0xbda35e8d	-0.079770185
39	0xbf0d17e2	-0.5511457
40	0xbd9bb486	-0.076027915
41	0xbd85ee89	-0.065396376
42	0xbd30ebfb	-0.0431938
43	0xbfab3dac	-1.3378196
44	0xbfa27b56	-1.2693889
45	0xbc363857	-0.011121831
46	0x3f58b54d	0.84651643
47	0xbd72676a	-0.059180655
48	0xbd8e251e	-0.06940673
49	0xc01ca09d	-2.447303
50	0xbde7cf11	-0.11318792
51	0xbfbfddb8	-1.4989538
52	0xbd12d631	-0.0358488
53	0x3e7297f8	0.23690784
54	0xbd2617d0	-0.040550053
55	0xbf7ff215	-0.9997876
56	0xbc209f5e	-0.009803621
57	0x3f112363	0.5669462
58	0xbd58313b	-0.052781325
59	0xc004fc35	-2.0778935
60	0xbd1c48c2	-0.038155325
61	0xbdaa8e57	-0.083279304
62	0xbc82bb4a	-0.015958447
63	0xbd8ebb3b	-0.06969305
64	0xbdb53223	-0.088474534
65	0x3f6c5673	0.9231941
66	0xbdcedee7	-0.10101109
67	0xbed4de8a	-0.41576034
68	0xc020df69	-2.5136359
69	0xbe0161b8	-0.12634933
70	0x3f2abbed	0.66693
71	0xbdefbe71	-0.11706246
72	0x3e7217cd	0.23641892
73	0xbd7dd9ac	-0.061975166
74	0xbc9ad265	-0.018899152
75	0xbdb635be	-0.08896969
76	0xbd8edfe8	-0.069763005
77	0xbdbe61ee	-0.09296022
78	0xbdb885e2	-0.09009911
79	0xbe316ee1	-0.17327453
80	0xbdb5cd6a	-0.0887707
81	0xbd8e0b51	-0.06935752
82	0x3ca2fe7d	0.01989674
83	0x3d93533f	0.07193612
84	0x3f651098	0.89478445
85	0x3dac3bc1	0.08409835
86	0xbdb4cfd7	-0.08828705
87	0xbe8d307b	-0.2757605
88	0xbcdfcbd2	-0.027318869
89	0xbf27eec3	-0.65598696
90	0xbdcc9563	-0.09989431
91	0xbe00b9c4	-0.12570864
92	0xbc31b264	-0.010845754
93	0xbdffe26c	-0.124943584
94	0x3b104804	0.002201558
95	0xbcbdaf1f	-0.023154793
96	0xbc844303	-0.016145235
97	0x3e821fdb	0.2541493
98	0x3f988f81	1.1918794
99	0xbf96f8e5	-1.1794707
100	0xbf03e547	-0.51521724
101	0xbdac26ab	-0.08405813
102	0xc0296fdf	-2.647453
103	0x3efba437	0.49148723
104	0xbd76539a	-0.060138322
105	0xbf773d37	-0.9657778
106	0xbca9d712	-0.020732436
107	0xbf089692	-0.5335475
108	0xbda98a63	-0.08278348
109	0xbd06d1c0	-0.032914877
110	0x3ecd57ea	0.40106136
111	0x3faea69c	1.3644595
112	0xbf1eab3c	-0.6198003
113	0xbee53704	-0.44768536
114	0xbdb66e3b	-0.089077435
115	0x3f306646	0.68906057
116	0xbcc42b7e	-0.02394652
117	0x3ec8c1d6	0.39210385
118	0xbed607d1	-0.41802838
119	0xbde6b7fa	-0.112655595
120	0xbdb92fde	-0.09042333
121	0xbfa544e4	-1.2911649
122	0xbde73fdf	-0.11291479
123	0xbf8d5152	-1.1040442
124	0xbf8e9e48	-1.1142054
125	0x3f5f02fd	0.87113935
126	0xbf537eef	-0.8261556
127	0xbd670ed0	-0.05641061

fc3.weight f4 [128, 128]
0	0x3d4bce4a	0.04975728
1	0x3d8dca43	0.06923344
2	0x3d014aa3	0.03156532
3	0x3dad8ef1	0.084745295
4	0xbd899260	-0.06717372
5	0xbd578604	-0.05261804
6	0x3db4d0bb	0.08828875
7	0xbd516d1a	-0.051129438
8	0x3dadec01	0.0849228
9	0xbb30f380	-0.0027000606
10	0xbd995b56	-0.07488124
11	0xbd06718f	-0.03282314
12	0x3d130a80	0.035898685
13	0xbcb63b73	-0.022245144
14	0x3d993e20	0.074825525
15	0xbd9c73e0	-0.07639289
16	0xbd68813b	-0.05676387
17	0x3d28eff9	0.04124448
18	0x3d9708e1	0.073747404
19	0x3cb0a5b3	0.021563387
20	0xbd669b7e	-0.056300633
21	0x3ca5b998	0.0202301
22	0xbc1ec903	-0.00969148
23	0xbcbe7b84	-0.023252256
24	0xbbe5f490	-0.0070176795
25	0xbd6cddb5	-0.057828624
26	0xbd447471	-0.04796261
27	0x3d1e5039	0.038650725
28	0x3bfbb620	0.007681623
29	0x3da47aad	0.08031211
30	0x3c876101	0.016525747
31	0xbd3e284b	-0.046425145
32	0xbbc36170	-0.005962543
33	0xbd200f3f	-0.03907704
34	0x3daf9a39	0.085743375
35	0xbc59baf0	-0.013289198
36	0x3d06b55b	0.032887798
37	0xbd75ee3f	-0.060041662
38	0x3c9d3770	0.019191474
39	0xbd550914	-0.05201061
40	0xbd94ad84	-0.07259658
41	0xbcf2a820	-0.029621184
42	0xbcab07b4	-0.020877697
43	0xbd90ce3f	-0.07070588
44	0x3d8825f2	0.066478625
45	0xbd90daae	-0.0707296
46	0xbd2b74ea	-0.041859545
47	0x3bb24990	0.0054408982
48	0xbc49c338	-0.01231461
49	0xbc55a60a	-0.013040075
50	0xbdac0a72	-0.0840043
51	0xbda82929	-0.08210976
52	0xbd48e8f8	-0.0490503
53	0x3d3eece4	0.046612635
54	0xbd538d09	-0.051648173
55	0x3c8ecf10	0.01743272
56	0x3cdec604	0.02719403
57	0xbc4b6065	-0.012413119
58	0x3d27270a	0.040808715
59	0xbcbe68af	-0.023243276
60	0xbda033b6	-0.07822363
61	0x3ccec18c	0.025238775
62	0xbc8339bc	-0.01601874
63	0x3c00a420	0.00785163
64	0x3ba6a3d0	0.005085446
65	0x3d2362da	0.039889194
66	0x3d5d7916	0.054070555
67	0xbd494202	-0.049135216
68	0x3c906e6e	0.017630782
69	0xbcabe3c8	-0.020982638
70	0xbcd18d08	-0.025579944
71	0x3b0eb400	0.0021774769
72	0x3cc91ea8	0.02455075
73	0x3da25143	0.07925656
74	0xbcd1b300	-0.02559805
75	0xbcadb3e4	-0.021203943
76	0x3caae260	0.020859897
77	0x3d071f1c	0.032988653
78	0x3d93e79d	0.07221911
79	0xbd93e3f4	-0.07221213
80	0xbd497e31	-0.04919261
81	0x3cead824	0.028667517
82	0xbd944ea1	-0.0724156
83	0xbcdb40f1	-0.026764365
84	0xbd8fd14c	-0.07022342
85	0xbcc956e8	-0.024577573
86	0x3d84ca8b	0.064839445
87	0x3cb25320	0.021768153
88	0x3d61e102	0.055146225
89	0x3b879e41	0.0041387384
90	0xbd10ebc5	-0.035381097
91	0x3d2e3f4e	0.04254084
92	0xbd9ce087	-0.07660013
93	0x3d96b0bd	0.07357929
94	0x3ce7d5dc	0.028300218
95	0x3cbb08b4	0.022831298
96	0x3d2a1baa	0.04153029
97	0x3cf4525c	0.029824428
98	0xbd0326f3	-0.032019567
99	0xbbb02a64	-0.005376147
100	0xbd99a48a	-0.075020865
101	0x3d4e38f6	0.05034729
102	0x3d8fdb2e	0.07024227
103	0xbda69a9d	-0.08134959
104	0x3d973ee9	0.07385046
105	0x3da0d95c	0.07853958
106	0xbd18144b	-0.037128728
107	0x3c3cc408	0.011521347
108	0xbd7671fd	-0.0601673
109	0x3d2f893a	0.04285548
110	0xbdb1590d	-0.08659563
111	0xbd583f94	-0.052795008
112	0xbbdcd995	-0.006739805
113	0x3d618d2b	0.05506627
114	0x3caf8520	0.021425784
115	0xbdb47c38	-0.08812755
116	0xbd9d2e00	-0.076747894
117	0xbd950964	-0.07277182
118	0xbd792ae3	-0.060831916
119	0xbd0f9747	-0.03505638
120	0x3d3b1b9a	0.04568062
121	0xbd2fecb1	-0.042950336
122	0xbd2e73c8	-0.042590886
123	0xbd6caf97	-0.057784643
124	0xbd4a0d1b	-0.049328905
125	0xbc174b78	-0.009234302
126	0xbd9da790	-0.07697976
127	0xbd88d6a4	-0.066815645
128	0xbd2f82c8	-0.042849332
129	0xbd68cdeb	-0.056837004
130	0xbdf5ed38	-0.120081365
131	0xbd2d432f	-0.0423004
132	0xbd89ef4a	-0.06735094
133	0x3d97f293	0.07419314
134	0xbb7c7c20	-0.0038526133
135	0x3cff896b	0.031193456
136	0xbce4fb79	-0.027951943
137	0x3c384070	0.011245832
138	0xbd524ba7	-0.05134168
139	0x3d4bb602	0.049734123
140	0x3c63cff0	0.013904557
141	0xbc8f5d08	-0.017500415
142	0x3d50a2a9	0.050936375
143	0xbd9927ec	-0.074783176
144	0x3d3997a6	0.04531064
145	0xbdd47bc3	-0.10375168
146	0x3c65b3ef	0.01401995
147	0xbdc8a900	-0.09797859
148	0xbc4c450d	-0.012467635
149	0xbc9289d5	-0.017887989
150	0xbdebaf53	-0.1150805
151	0xbc0b87b0	-0.008516237
152	0x3d82c047	0.0638433
153	0xbd2d65ad	-0.042333294
154	0xbd600d80	-0.054700375
155	0xbd69a4dc	-0.057041988
156	0xbd23e461	-0.04001272
157	0xbca24ce7	-0.01981206
158	0xbdae6976	-0.08516209
159	0x3c91469a	0.01773386
160	0xbce591da	-0.028023649
161	0xbd99c242	-0.07507755
162	0xbdb12caf	-0.08651101
163	0xbdc3fda5	-0.09569863
164	0xbcbe8287	-0.0232556
165	0x3c6a8a1e	0.014315156
166	0xbd875e5e	-0.06609796
167	0xbd89fc29	-0.06737549
168	0x3d58c3c2	0.052921064
169	0x3cba0bb4	0.022710659
170	0xbda54318	-0.08069438
171	0xbdcb04fc	-0.0991306
172	0xbd27a1bd	-0.04092573
173	0x3d215bae	0.039394073
174	0xbdf3c04c	-0.11901912
175	0x3d8f2ddf	0.06991171
176	0x3d97bd80	0.07409191
177	0x3d6a06f3	0.057135534
178	0xbd4650b0	-0.048416793
179	0xbc8863d0	-0.016649157
180	0x3da48ac7	0.08034282
181	0x3ce4c118	0.027924106
182	0xbcc75348	-0.024331704
183	0xbd227060	-0.03965795
184	0xbdb305b9	-0.08741326
185	0x3cfab9ec	0.030606233
186	0x3da44c85	0.080224074
187	0xbd142a30	-0.036173046
188	0x3da78d0d	0.081812
189	0x3da6e237	0.08148616
190	0xbc8927c4	-0.016742595
191	0x3c625d08	0.013816126
192	0xbda0642d	-0.07831607
193	0xbdf2b742	-0.1185136
194	0x3db178c7	0.086656146
195	0xbde6ce0d	-0.1126977
196	0xbd8e6fb8	-0.069549024
197	0x3cc52dfc	0.024069779
198	0xbd376b37	-0.044779982
199	0x3da59b71	0.08086289
200	0xbd27b3d7	-0.040942993
201	0x3d1ac93e	0.037789576
202	0xbcb4181c	-0.021984152
203	0xbdad8b27	-0.08473807
204	0xbd9e979d	-0.07743762
205	0x3d9798ef	0.07402217
206	0x3cc30a78	0.023808703
207	0x3d384fb9	0.044997904
208	0xbd1211bd	-0.035661448
209	0xbca8caf8	-0.020604596
210	0x3cda4684	0.026644953
211	0xbd845aa4	-0.06462601
212	0x3d95556f	0.07291686
213	0xbd6fb59c	-0.058522806
214	0x3ca65714	0.020305194
215	0xbd12a119	-0.035798166
216	0x3cc38674	0.023867823
217	0xbd8e95cf	-0.069621675
218	0x3c332f70	0.010936603
219	0xbc9c985c	-0.01911562
220	0xbca08040	-0.019592404
221	0xbc969f0c	-0.018386386
222	0xbbcd1900	-0.0062590837
223	0x3d62ce0e	0.05537229
224	0xbd4355aa	-0.047689117
225	0x3d030a6d	0.031992365
226	0xbd40d023	-0.047073495
227	0xbcefa2b9	-0.029252397
228	0xbd8ac99e	-0.06776737
229	0x3c71ea50	0.014765337
230	0x3d808d1c	0.062769145
231	0xbd1de492	-0.03854806
232	0x3c133de8	0.008986928
233	0xbbf64c09	-0.0075163883
234	0xbc19c618	-0.009385608
235	0x3d36b757	0.04460844
236	0x3cfefb9c	0.031125836
237	0x3d20f206	0.03929331
238	0xbdbc3307	-0.0918942
239	0xbcda8ff4	-0.02667997
240	0x3ce9ab41	0.028524043
241	0x3bbd384a	0.0057745324
242	0x3d5c33aa	0.05376021
243	0xbddd8a28	-0.10817367
244	0xbd50a0bc	-0.05093454
245	0xbd735b88	-0.059413463
246	0xbdf03fcb	-0.117309175
247	0x3da303e3	0.07959726
248	0x3d3099ea	0.043115534
249	0xbcdf2b18	-0.027242228
250	0x3ca095b0	0.019602627
251	0xbd15220b	-0.03640942
252	0xbd903aea	-0.07042487
253	0xbd5c5ce0	-0.05379951
254	0x3b3504f3	0.0027621358
255	0xbd4d1648	-0.050070077

fc3.bias f4 [128]
0	0xbcf00485	-0.02929903
1	0xbda7dcbf	-0.08196401
2	0xbcd638ec	-0.02615019
3	0xbf97c771	-1.185774
4	0xbd19797d	-0.037469376
5	0xbe596b68	-0.21232378
6	0x3e607f50	0.21923566
7	0xbdd14d9a	-0.102198794
8	0xba8f058c	-0.0010911687
9	0xbe981a29	-0.2970746
10	0xbdd52502	-0.10407449
11	0xbc77a13d	-0.015114126
12	0x3d62150d	0.055195857
13	0x3d15b895	0.036552984
14	0x3c39c523	0.011338505
15	0x3d939f99	0.07208175
16	0xbe211ca9	-0.15733589
17	0xbbc97250	-0.0061476603
18	0xbdd599aa	-0.104297
19	0x3a0f55c2	0.0005467796
20	0xbe86e092	-0.2634321
21	0xbd6a4eb6	-0.05720397
22	0xbe1ab976	-0.1510981
23	0xbf112917	-0.56703323
24	0xbdddabe7	-0.108238034
25	0xbb08d15e	-0.0020876746
26	0xbdec24fe	-0.11530493
27	0xbc2d0165	-0.0105594145
28	0xbd83c133	-0.06433334
29	0xbd37232d	-0.04471128
30	0xbddaef6c	-0.10690197
31	0xbe08ad48	-0.13347352
32	0x3ef66553	0.4812418
33	0xbdb6dc94	-0.08928791
34	0xbc852c1f	-0.01625639
35	0xbd4cea0a	-0.050027885
36	0x3d10c841	0.035347227
37	0x3c853e88	0.016265169
38	0xbcfe7612	-0.03106216
39	0x3cd3a9cb	0.0258378
40	0xbdc2a746	-0.09504561
41	0xbe109a0d	-0.14121266
42	0x3cc08240	0.023499608
43	0x3d7a5c2d	0.061123062
44	0xbd963827	-0.07334929
45	0xbf1db157	-0.61598724
46	0xbdaf18e3	-0.08549669
47	0xbcfdfadd	-0.03100341
48	0xbd401541	-0.04689527
49	0xbda075a2	-0.07834937
50	0xbdc9e275	-0.098576464
51	0xbe00117b	-0.12506668
52	0x3c1740a1	0.009231717
53	0xbe23436e	-0.15943691
54	0xbd58a6e7	-0.052893545
55	0xbfaccd8c	-1.3500228
56	0xbc613d44	-0.013747517
57	0xbd2da04a	-0.04238919
58	0x3d13d0d7	0.036087837
59	0xbe3ad781	-0.1824627
60	0xbdd56807	-0.10420232
61	0xbc667bff	-0.014067649
62	0xbf0d0c39	-0.55096775
63	0xbd82dc39	-0.063896604
64	0xbf292c1d	-0.66082937
65	0xbda042b2	-0.07825221
66	0xbdf69745	-0.12040571
67	0x3b6741a4	0.0035286928
68	0xbd0ba0e0	-0.03408897
69	0xbd20ba95	-0.03924044
70	0xbf83e56c	-1.0304389
71	0xbd88e268	-0.066838086
72	0xbde47e3b	-0.11156889
73	0xbd949455	-0.072548546
74	0xbda80f39	-0.082060285
75	0xbfe29b78	-1.7703695
76	0xbff85c25	-1.940312
77	0xbda160f2	-0.07879819
78	0xbd200360	-0.03906572
79	0xbcc33cce	-0.023832705
80	0xbd0a8245	-0.03381564
81	0xbdc83e7e	-0.097775444
82	0x3ecbf119	0.3983238
83	0xbe15cefb	-0.14629738
84	0xbe0840c3	-0.13305955
85	0xbdbbc9b3	-0.091693304
86	0x3c2db3e0	0.010601968
87	0xbd4aac42	-0.049480684
88	0xbd12b281	-0.035814766
89	0xbdb9697f	-0.09053325
90	0x3ef37119	0.47547224
91	0xbcfd11db	-0.030892303
92	0xbd88a6e3	-0.06672456
93	0xbf1d2bb1	-0.6139479
94	0xbf873545	-1.0563132
95	0xc041e8d4	-3.0298357
96	0xc041ef8d	-3.030246
97	0x3e269165	0.16266401
98	0xbf9eaaea	-1.2395909
99	0xbf592fb9	-0.84838444
100	0xbdae5d21	-0.08513857
101	0xbf30a3b7	-0.6899981
102	0xbe50646a	-0.20350805
103	0xbcdb0d80	-0.026739836
104	0xbdbf952f	-0.093546264
105	0xbdb6f0d4	-0.08932653
106	0x3ff97348	1.9488306
107	0x3fe58fe7	1.793454
108	0x3faae660	1.3351555
109	0x3fb462e3	1.4092678
110	0x40065547	2.098955
111	0xbf84f33f	-1.0386733
112	0x400be09a	2.1855836
113	0xbb1673a7	-0.0022957118
114	0xbd6035bd	-0.05473875
115	0x3fc83a08	1.564271
116	0x3eb8257a	0.35966092
117	0xbf68284a	-0.90686476
118	0x3ed36608	0.4128878
119	0x3f64c2e6	0.8935989
120	0xbde4488e	-0.11146651
121	0xbd85a10b	-0.06524857
122	0xbdc55e96	-0.096371815
123	0xbaae6992	-0.0013306609
124	0xbf9f4c70	-1.2445202
125	0xbedc596b	-0.4303697
126	0xbf3bdb9e	-0.73381984
127	0x3feaf73d	1.8356701

lstm.weight_ih_l0 f4 [24, 1]
0	0xbe478244	-0.19483286
1	0x3f1a8679	0.6036144
2	0x3da89aae	0.08232628
3	0x4084cdfe	4.1501455
4	0x3d9e6bdb	0.077354155
5	0xbe4d9d87	-0.20079623
6	0xbe03acd5	-0.12858899
7	0x4004216a	2.0645394
8	0x3eae7ea3	0.3408099
9	0x3ddd1785	0.107955016
10	0x3fcefbab	1.6170553
11	0x3fac93fe	1.3482664
12	0xc005c195	-2.0899403
13	0xc0134e33	-2.301648
14	0xbe47c2bc	-0.19507879
15	0x3e9f02a0	0.3105669
16	0x3eba19d8	0.36347842
17	0xbf52526a	-0.82157004
18	0x3f5be4d8	0.8589606
19	0x408c4ff9	4.3847623
20	0xbf268d0f	-0.6505899
21	0x3eb6c65b	0.35698208
22	0x400e9df0	2.2283897
23	0x3d9799e6	0.07402401

lstm.weight_hh_l0 f4 [24, 6]
0	0xbf444b94	-0.76677823
1	0xbf38e681	-0.7222672
2	0x4057d9cb	3.372668
3	0x3dbf4f2d	0.093412735
4	0xbe3f8a92	-0.18705204
5	0x3cc4d3f4	0.024026848
6	0xbf81e1c3	-1.0147022
7	0x3d232a5d	0.039835323
8	0x3e8178d5	0.252875
9	0x40047163	2.0694206
10	0xbebda876	-0.37042588
11	0x3f7e939e	0.99443996
12	0xbf8adcf3	-1.0848678
13	0xbebc20a4	-0.36743653
14	0x3f14f48f	0.58185667
15	0x3ec61df3	0.38694724
16	0x3f83f140	1.0307999
17	0xbf937d32	-1.1522582
18	0x3e3d4b03	0.18485646
19	0x3f834765	1.0256163
20	0x3e96327e	0.29335397
21	0x3fbdd60c	1.4830947
22	0x3f1d69d7	0.61489624
23	0x3f4717f4	0.77770925
24	0xbeb59cd3	-0.3547121
25	0x3ea084ad	0.31351224
26	0x3f4ca68b	0.79941624
27	0xbee3a82e	-0.44464248
28	0x3f4c44d4	0.79792523
29	0x3f459704	0.77183557
30	0x3eefe908	0.46857476
31	0xbf04457d	-0.5166853
32	0x401a1a47	2.4078538
33	0x40122cd2	2.2839856
34	0xc0071f2b	-2.1112773
35	0x3f1e05ee	0.617278
36	0xbfc2da59	-1.5222884
37	0xbfca5611	-1.5807515
38	0x408c65d3	4.3874297
39	0x3fae7e19	1.3632232
40	0x3e86476d	0.2622637
41	0xbf59d73e	-0.8509406
42	0xbf188277	-0.59574074
43	0x3f212521	0.6294728
44	0xbf84c0c1	-1.0371324
45	0x3f50f97a	0.8163067
46	0xbfb7d312	-1.4361289
47	0xbe19fbe3	-0.15037493
48	0xbfa86d18	-1.3158293
49	0xbf15cc40	-0.58514786
50	0x3e83b8ab	0.25726828
51	0x3f95f626	1.1715744
52	0x3dc8dc71	0.09807671
53	0x3ec27a9a	0.37984163
54	0xbfe5fdaf	-1.7968043
55	0x3f2dd0ea	0.678969
56	0x3eb5d0f0	0.3551097
57	0x3ee34687	0.44389746
58	0xbe9a6090	-0.30151796
59	0xbc182f68	-0.009288646
60	0xc002a34c	-2.0412169
61	0xbf240e96	-0.64084756
62	0x3fd89358	1.6919966
63	0x3fc524bc	1.5401835
64	0xbf1dcd69	-0.61641556
65	0x3f96b303	1.177338
66	0xbfbcff83	-1.4765476
67	0xbd814307	-0.063116126
68	0x3ebcf1c4	0.36903203
69	0xbef7629f	-0.4831743
70	0xbeeeaf21	-0.46617988
71	0x3f852cd4	1.0404305
72	0x4021b885	2.5268872
73	0xbe9cd9d9	-0.30634955
74	0xbf3fb9d9	-0.74892956
75	0xbf96482e	-1.1740777
76	0x3f7b6f7a	0.98216975
77	0xbe8b518a	-0.27210647
78	0xbf8247d8	-1.0178175
79	0xbe26d722	-0.16293004
80	0xbe39c515	-0.18141587
81	0x3eac643f	0.33670232
82	0x3f610705	0.87901336
83	0x401a2c5f	2.4089582
84	0x3e46f8af	0.19430803
85	0xc02c411e	-2.6914744
86	0xbeaf6375	-0.34255567
87	0x400cbb66	2.198938
88	0xbf07aea9	-0.53000885
89	0xc00b6ac5	-2.1783917
90	0x400877f0	2.1323204
91	0xbfa0dfc6	-1.256829
92	0x3cc65624	0.024210997
93	0xbd9b6b04	-0.07588771
94	0x3f18ecd2	0.5973636
95	0xbfdbf6c8	-1.7184687
96	0x3f1a3f27	0.6025261
97	0x3fdb2477	1.7120503
98	0x3f417f01	0.7558442
99	0xbf455316	-0.77079904
100	0x3e0da184	0.13831145
101	0x3f469cb9	0.7758289
102	0xbfa6ecf3	-1.3041061
103	0xbf12e034	-0.57373357
104	0x3f5e719e	0.86892116
105	0x3e698cc3	0.22807603
106	0xbf12f341	-0.57402426
107	0xbf829efd	-1.0204769
108	0xc055318c	-3.331149
109	0xbf92d7c8	-1.1472101
110	0xbf268255	-0.6504262
111	0x3fa47aaa	1.2849934
112	0xbf022765	-0.5084136
113	0x3f8f20f1	1.1181928
114	0xc03a1c2d	-2.9079697
115	0xc0075749	-2.1147025
116	0x40520d4f	3.2820623
117	0xbffb5399	-1.9634887
118	0x3cbf7291	0.02337006
119	0x3fb8f764	1.4450498
120	0xc0a14901	-5.0401616
121	0xbf59c6f1	-0.85069185
122	0xc0c030c2	-6.005952
123	0x409900f6	4.7813673
124	0xc0389ea1	-2.884682
125	0x4016fdcd	2.3592408
126	0x3ca47573	0.020075535
127	0xc06ec838	-3.7309704
128	0x401a2a10	2.4088173
129	0xbfa125dd	-1.258968
130	0xbe75c6d4	-0.24001628
131	0xbf43dd92	-0.76509964
132	0xbef2cc49	-0.47421482
133	0x3f653ab5	0.89542705
134	0x3f7eab68	0.99480295
135	0x40532269	3.2989752
136	0x3f914871	1.1350232
137	0xc0442e05	-3.0653088
138	0xc018cd70	-2.387539
139	0xc073e682	-3.810944
140	0x3e633fee	0.22192356
141	0xbe876df5	-0.26451078
142	0xc0596dd2	-3.397328
143	0xc03ddf3b	-2.96675

lstm.bias_ih_l0 f4 [24]
0	0xbfae91dc	-1.3638263
1	0xbf40e50b	-0.7534949
2	0xbe2e1ee3	-0.1700397
3	0xbf9849cf	-1.1897525
4	0x3f3309c3	0.6993677
5	0x40424438	3.0354137
6	0x3f7771e0	0.96658134
7	0x3f69dd31	0.91353136
8	0x3d66ae29	0.056318436
9	0x3f566f83	0.83763903
10	0x3ebc3822	0.36761576
11	0x3f08bbbc	0.5341146
12	0xbef4259f	-0.47684953
13	0x3de9798e	0.11400138
14	0x3f159609	0.5843206
15	0xbf8024ef	-1.0011271
16	0xc0366c89	-2.8503745
17	0xbdc2ee05	-0.09518055
18	0xbde83dc7	-0.11339908
19	0x3f86b95b	1.0525316
20	0x4029b9fc	2.6519766
21	0x3f0a310c	0.5398109
22	0xbceff301	-0.029290678
23	0xbf156cdb	-0.58369225

lstm.bias_hh_l0 f4 [24]
0	0xbfb876a3	-1.4411205
1	0xbf082f44	-0.5319712
2	0xbf0b3b42	-0.54387295
3	0xbf80c3a6	-1.0059707
4	0x3ede41d7	0.43409607
5	0x404a96ed	3.1654618
6	0x3f8e8584	1.1134496
7	0x3f8bb16b	1.0913519
8	0xbe50c129	-0.20386185
9	0x3e8d2e6d	0.27574483
10	0x3e1f2a0d	0.15543385
11	0x3ef5ca14	0.48005736
12	0xbf48294a	-0.78188
13	0x3ddf4fea	0.10903914
14	0x3e3d76b4	0.18502313
15	0xbf219c26	-0.6312889
16	0xc047fe88	-3.1249104
17	0xbe4f68a2	-0.20254758
18	0xbc6407b8	-0.013917856
19	0x3f77a812	0.9674083
20	0x40255d94	2.5838366
21	0x3f24104b	0.6408736
22	0xbe86c620	-0.26323032
23	0xbea88d21	-0.32920173

fc4.weight f4 [6, 6]
0	0xbf0c4ae9	-0.54801804
1	0xc0014101	-2.0195925
2	0x40222617	2.5335748
3	0x3fe56071	1.7920057
4	0xbfac32ff	-1.3453063
5	0x40716e0f	3.7723424
6	0x40efa99c	7.4894543
7	0x3e90739f	0.28213212
8	0x40e314fd	7.096312
9	0x4040ca9e	3.0123668
10	0x40ae7395	5.451609
11	0x40555ee9	3.3339179
12	0xbf97f5df	-1.1871909
13	0xbeff69ea	-0.49885494
14	0xc0cb3071	-6.3496633
15	0x400af0b4	2.1709414
16	0x3f634cf1	0.8878928
17	0xc0b04de4	-5.509508
18	0xbeb59ddc	-0.35472
19	0x4049fd74	3.1560946
20	0x403a95d0	2.9153938
21	0xbebf05c3	-0.37309083
22	0xc0440d82	-3.0633245
23	0xc086caaa	-4.2122393
24	0x40f891aa	7.7677813
25	0x407f1db2	3.9861875
26	0xc105290e	-8.322523
27	0xc00851d1	-2.1299937
28	0xbf8fd855	-1.1237894
29	0xbefc842d	-0.49319592
30	0xbd4ff4c9	-0.050770555
31	0xbfd0fd1f	-1.6327246
32	0x4025279f	2.5805433
33	0xc05e90fd	-3.4775994
34	0x3fba1c6f	1.4539927
35	0x406763aa	3.615458

fc4.bias f4 [6]
0	0xc0149bd0	-2.32201
1	0x3e8ba494	0.27274
2	0x400c378a	2.1908898
3	0x4066d0bf	3.6064909
4	0x3df3ebf6	0.1191024
5	0xc03a492d	-2.9107163
