data/model/detection/best_pH_LSTM_model.pth (torch, 14155 bytes, 12 tensors)

fc1.weight f4 [32, 7]
00000000: a5eb aebd 2f62 983e 1116 903c 14f3 84bd
00000010: 1eb2 78bd 477d 4e3e 70c8 9dbe 48fc 2a3e
00000020: ae37 6fbe aff1 a93e 44f1 b7be 095a e3bf
00000030: 6393 2bbe 8e29 bb3f 6fe5 e73e 8e53 243f
00000040: 4d45 bc3e f26d b73e 64d0 423e 3beb 953e
00000050: 54f5 1fc0 6e3f cf3d 3ec6 ddbe 41de 36be
00000060: e6b7 24be bd36 2d3e 7199 8e3e 80b3 ce3f
00000070: b6b7 ddbe 501f bcbe 3151 a8be 5aef f8be
00000080: fbdd 04bf 8efb 0abf 235d d9be d41f afbd
00000090: d9b7 943d 1480 fe3d 9875 b13e 960e 033e
000000a0: 3701 9a3b 70da febe 8995 d53d 37d9 b2be
000000b0: eae8 40be 4da2 103f 1389 a7bd 8a08 94be
000000c0: f9a5 893f e0a3 2ebd bfdc d7be c207 12bd
000000d0: 5a8c 61be 0957 a5bd e9f8 c5be 77d4 bb3e
000000e0: 6030 72bf a020 2fbf 475d 8fbf c8d9 a2bd
000000f0: 4bac 1f3e f764 8dbf 95a0 353d c640 b1be
00000100: 2c9b b63d d89f d53d 0f88 b03e 9a87 2c3e
00000110: de6f 7bbe 67a4 45be 1a3f 2f3e 238c a73e
00000120: 1864 c0be 7686 303e 0eca 13be 24fc a6be
00000130: 36ae 7fbe 6e3e 333e b862 4ebd 27bc 8dbe
00000140: b0e1 dcbd fe57 513e 72a2 66be c0d8 5a3c
00000150: c4a2 b2be 0836 a3bd 1063 8b3c ec9e a53d
00000160: bb87 bf3e 752b 86be 60dd b03d a040 a4bd
00000170: 51b3 953b 0477 b6be 583d 82be 5024 8bbe
00000180: c39d bd3d 0ef1 913e eaf2 bf3d 8005 b2be
00000190: 8993 25be f327 20be 358c a13e 868d cbbd
000001a0: 8e8a 9f3c 954f 763e 46fd 933e deae a7be
000001b0: df21 abbe 343c 7bbe f4b9 aa3e 5723 82bc
000001c0: e9e2 133e 6d9c a6be eb57 dd3c 2f2d b2be
000001d0: a15f 2d3d 1dbb 5e3e a688 fb3e 2c57 43bf
000001e0: d6f4 21be e321 8dbe 2d78 7dbf 0804 46bf
000001f0: dbc2 8fbe 7342 7e3e 6b97 34be 602c a83c
00000200: 3b74 8f3d ed07 40bd c76e 003e 9d4f aebe
00000210: 6b8a 493d 433a 2ebe a98a 89be e8db 7f3d
00000220: c18e 513e 48bf 49bc d20b 9a3e f05c cebd
00000230: 11f7 9e3e 5f10 37bc b83d 363e 10cd 50be
00000240: 820c 833c a766 6f3c b7c9 12c0 0b0d 653b
00000250: 3f8f c6be 4728 f3bd 865d 603e 5a0f bbbd
00000260: 18ad 263e c924 c83f 7041 81bc 9662 783e
00000270: 8bb3 b0be b077 1c3d d08e aabc 1061 833c
00000280: 26f8 4e3e f0a8 b33d 684b 65bd 48c9 7abd
00000290: 9817 bebd a010 bd3c 54fb c1bd 6f0f 9abe
000002a0: 6fee b7be 5e1d a3be 2c8a 88bd 595e 8e3e
000002b0: 14bb a43d dc48 bfbe 7219 533e 79dc c03e
000002c0: 7397 a0bd 62a6 7cbd b59c ffbd 0692 e2be
000002d0: 3208 bd3e cd47 a1bf 23d5 563d 8850 d1bd
000002e0: 50a6 293e 2db0 afbd 7754 2c3e a78e bebe
000002f0: beba adbe ec56 dbbe 028d ecbe 53f4 6ebf
00000300: 853b 81bf 50d6 96bf 11fe 00bf 3498 b63f
00000310: 87bf 03be 07c4 9c3e 583a 1f3d ef09 c1be
00000320: e04f b3bc 90ef c7bc 8cf6 dcbd bc26 063d
00000330: 1a8d 0ebd be11 453e 6559 40be b8f0 86be
00000340: a653 9b3e ea16 5dbf 82c5 6a3e 754e 12be
00000350: 6bbb a0bd 3eef 0b3e 61e4 94bb 3b60 2f3e
00000360: 4369 17c0 6af9 85be dfbd c33e e600 86be
00000370: 849b 7bbd 4090 e0bd 92c6 363e 3828 e9bf
-0.085410394 0.29762408 0.017588647 -0.06491676 -0.06071674 0.20164977 -0.30816984 0.166978
-0.23361084 0.33192202 -0.3592626 -1.7761852 -0.16755442 1.4622056 0.4529223 0.64189994
0.36771622 0.3582607 0.19024807 0.2928103 -2.4993486 0.1011952 -0.4331531 -0.1785822
-0.16085777 0.16915412 0.27851442 1.6148529 -0.43304223 -0.3674264 -0.32874444 -0.4862011
-0.51901215 -0.5429009 -0.4245387 -0.085509926 0.07261629 0.12426773 0.3466003 0.12798533
0.004699852 -0.4977603 0.10428912 -0.34931347 -0.1883885 0.5649765 -0.08180442 -0.28912765
1.0753776 -0.042636752 -0.42160603 -0.03565193 -0.22026196 -0.08073241 -0.38666466 0.36685535
-0.94605064 -0.68409157 -1.1200341 -0.07951695 0.15593068 -1.1046437 0.044342596 -0.3461973
0.089163154 0.104308784 0.34478804 0.16848603 -0.24554393 -0.19300996 0.17113915 0.32724103
-0.37576365 0.17238793 -0.14432546 -0.32614243 -0.249688 0.17504284 -0.050387114 -0.2768261
-0.10785234 0.20443723 -0.22522905 0.013357341 -0.34889805 -0.0796929 0.01701501 0.080869526
0.37408242 -0.2620503 0.08635974 -0.08020139 0.0045684953 -0.35637677 -0.25437427 -0.27176142
0.09258606 0.28504223 0.09372504 -0.3476982 -0.16169561 -0.1564024 0.31552282 -0.09939103
0.019475248 0.24053796 0.2890417 -0.327506 -0.3342428 -0.24534684 0.33344996 -0.015885992
0.14442028 -0.32541218 0.027019462 -0.34800097 0.042327527 0.21751066 0.49127692 -0.7630489
-0.15816054 -0.27564916 -0.990115 -0.773499 -0.2807835 0.24830036 -0.17635886 0.020528972
0.07004591 -0.04688256 0.12542258 -0.34045115 0.04920427 -0.17014413 -0.26863602 0.06246558
0.20464613 -0.012313671 0.30087143 -0.1007632 0.31047872 -0.011173337 0.17796981 -0.20390725
0.015997175 0.014611877 -2.2935617 0.0034950401 -0.38781163 -0.11872917 0.21910676 -0.091337875
0.16276968 1.5636226 -0.015778273 0.24256358 -0.3451198 0.03820008 -0.020820051 0.016037494
0.20211849 0.08772457 -0.055980116 -0.061227113 -0.09281844 0.023079216 -0.09471765 -0.300899
-0.35924098 -0.31858343 -0.06666979 0.27806357 0.08043495 -0.37360275 0.20615175 0.37668207
-0.07841387 -0.061682113 -0.12481061 -0.44252032 0.36920315 -1.2600037 0.052449357 -0.10220438
0.1656735 -0.08578525 0.16829096 -0.3721821 -0.33931535 -0.42839754 -0.4620133 -0.9334156
-1.0096289 -1.1784153 -0.50387675 1.4265199 -0.1286603 0.30618307 0.038874 -0.3770289
-0.021888673 -0.024406224 -0.107892126 0.032751784 -0.034802534 0.1924505 -0.18784101 -0.2635553
0.30337256 -0.8636309 0.22926906 -0.14287741 -0.07848247 0.13665482 -0.0045438264 0.17126553
-2.3657997 -0.2616685 0.38230798 -0.2617256 -0.061427608 -0.109650135 0.17849186 -1.8215399

fc1.bias f4 [32]
00000000: 6b20 8dbe 6eea 05bf a88c 2dbf c4ef 91bf
00000010: 9935 6e3f 80e4 0bbf 4e91 77bf a65a 89be
00000020: 2b6e c53f a81d 17be 1f93 18be 37d6 6cbe
00000030: 31b8 abbe b971 56be 699a 9abd 2f4d 28be
00000040: ad89 bbbe 734e e83e 541a ddbd 0247 f4bd
00000050: 06bf 923f 9abe 90bf 8a65 a1be 801f a6be
00000060: 540e 99be 4bf5 f13e aea4 79ba bc42 573e
00000070: 4793 7dbe 06df 9bbd c4b2 963f 7eca 5c3f
-0.27563795 -0.52310836 -0.6779275 -1.1401296 0.93050534 -0.5464554 -0.9670609 -0.26826972
1.5424246 -0.14757407 -0.14899872 -0.23128591 -0.33538964 -0.20941819 -0.07548983 -0.16435693
-0.36628476 0.45372352 -0.10796037 -0.11927606 1.1464546 -1.1308167 -0.3152278 -0.32445908
-0.29893744 0.47257456 -0.00095231354 0.21021551 -0.24763213 -0.07610898 1.1773305 0.8624648

fc2.weight f4 [32, 32]
00000000: d6cb d83c 9b31 8f3d dc74 07be 6aa9 a140
00000010: f23f efbd b6d4 17bd a1c6 93bd 195c 21be
00000020: 4a07 69be 95fb c0bd 8047 453c 8564 273e
00000030: 7776 293e bf8d 76bd 7e5f eebd 0dc3 51bd
00000040: 01b3 9fbc 7096 5140 430c f03d f6d1 653d
00000050: 26f4 1840 02bf 8940 0919 0b3e 8163 223e
00000060: 8071 80bb b1aa 2cc0 953b 093e 99d4 eabe
00000070: 7296 813d b91d 143e 61db 2d40 71e7 37c0
00000080: c726 4d3e ef05 5bbe c95d ad3f 36c7 1640
00000090: fdeb 86ba 9f9c 94be f64b 54be 1271 4abe
000000a0: 054c a03f 1895 b6bd f0fc 9bbd 4009 dabd
000000b0: 1ad4 aebd b8ef 9ebd dd26 a3bd 5434 5ebd
000000c0: 3ff1 75be 72c1 46bf 00ce 94bd ca97 f13d
000000d0: 2f4c 9a40 cc36 1840 2a1c e43d 20fd e43c
000000e0: 80d2 643c 5594 e6bf 0ba0 65bd a7c1 343f
000000f0: c029 df3b 0888 bf3e 0209 a640 23f6 1c40
00000100: b41c c4bb efac 97be 14c6 94be cfee a040
00000110: d62b ea3e e021 123e 5965 353e 6bfe 743b
00000120: 4e74 693e 6f89 1b3e 3728 1b3e 2c9f 523d
00000130: 89f2 a9bd 3c6e 0f3d 41e2 c1bd aa21 9ebd
00000140: e9c9 4dbd c79f 853e 928a 6e3e 8414 c03c
00000150: a08d 3540 6207 8b40 004c a83c 9cc2 34be
00000160: 208d d3bc 718c 98c0 1a2e 1abd d480 81be
00000170: 6f86 2e3e db8d eabd b4eb 4340 9d81 27c0
00000180: 461c 3bbe 61bc 73bf 6976 bd3e b527 83c0
00000190: 0e94 d83e f78f 5bbb 502a bd3e d0ff 7e3e
000001a0: 6bc4 1e3f 08bf 903c b5a1 23be 7636 af3d
000001b0: de67 02be dde3 b8bb a39d cd3d 11cc 9f3d
000001c0: d583 763d bfdb de3e 65a0 263c 6e29 9f3d
000001d0: 9c4a 88c0 bfcc 5dc0 8cc2 10be f69b a83d
000001e0: 1689 cf3d 2dfc 54be 11d5 4ebe c4e7 d2be
000001f0: 4db9 29be 150f 5cbe 4f7a 86c0 94cf ddbf
00000200: ca44 60bc 98be 8abf d66e 053f ddbc 72c0
00000210: 9666 643e d3ec 0fbe 6fbe 103f c966 f83c
00000220: 3ec8 393f e672 a23d 1158 093e 69d1 a5bd
00000230: 68f3 30bd bf1f 2ebe 4721 c4bd 5309 b8bd
00000240: c6f0 923d e90f f13e 8665 b2bd f0ff ba3d
00000250: a13e 8ec0 1561 54c0 3827 3dbd 759b 343e
00000260: f0ee 14be 650d bd3d dab0 21be f197 56be
00000270: 7297 d6bd dfe3 afbd 0269 a4c0 8b4e dcbf
00000280: 1e76 883e f93c 643f c21f d0be 2c58 8d40
00000290: c5c0 083e eb70 5c3c 9af7 a53c 45ca 41bc
000002a0: 2ebd 12bf 2788 00be 4d81 b1bd 98fb ff3c
000002b0: e490 1cbd 56db 49be 2030 fdbd a4f4 1b3e
000002c0: 04ea 983c dec9 2a3f 83bc 02be 6dfa 14be
000002d0: 7b23 5840 d7f3 8040 b6d9 0bbe 32a2 31be
000002e0: 87ac 0d3e 4b19 813f e06e e2bd f1eb 243e
000002f0: d226 ab3d 1603 893e e318 4540 dac5 b93d
00000300: ce55 2fbe be1a cbbf 389f c63f eff5 2cc0
00000310: b9fb 71bf 14e9 dc3d 581c 753d 9c8b 6fbe
00000320: 7aa7 ad3f 1810 3dbd 4288 b73d fe6d c9bd
00000330: f83e c5bc a8f1 36be e6ce 3d3c c16b 003e
00000340: 209d cdbc 910d cc3e 6181 353e 46a6 c03d
00000350: a73c 8bc0 1248 17c0 2fff 2d3e 8f69 2c3e
00000360: 9f38 173e b41d b13e c25d 133e 3a87 0bbf
00000370: 6772 2c3e 2f63 843f 55b6 79c0 79c1 e4bf
00000380: 1dfc 473c 16d9 db3e 078b 02bf b372 9640
00000390: 1989 433e be0c 293e 03e1 8fbc 6006 81bd
000003a0: 549a cfbe be04 8d3d e085 8dbb a09a 073c
000003b0: c0d5 0a3b bc31 153d 7a09 87bd 5f99 0dbe
000003c0: aa68 38be be4f bf3e 22f9 cc3d d89b b3bd
000003d0: 7945 5840 d2ca 8640 de2f 88bd 3c04 15bd
000003e0: 4704 083e eeec b53e 92a0 e4bd d43d c43d
000003f0: a044 b2bd acda 3abe 4f59 6140 7ee8 6040
0.026464384 0.06991883 -0.13228172 5.0519304 -0.116821185 -0.03706809 -0.0721562 -0.15757789
-0.22756687 -0.094229855 0.012040973 0.16346939 0.16549097 -0.060193773 -0.116393074 -0.051211406
-0.019494535 3.274807 0.11721089 0.056108437 2.3899016 4.3045664 0.13583769 0.1585827
-0.0039197803 -2.6979182 0.13401635 -0.45865324 0.06327523 0.14464463 2.7165148 -2.873501
0.20034324 -0.21388982 1.3544246 2.3559089 -0.0010293719 -0.29025742 -0.20732102 -0.19769695
1.2523199 -0.08915156 -0.076166034 -0.106462955 -0.08536549 -0.077605665 -0.07966397 -0.054249123
-0.2401781 -0.77638924 -0.07265854 0.117965296 4.8217998 2.3783445 0.11138184 0.02795273
0.013966203 -1.8014017 -0.056060832 0.7060799 0.006810397 0.3740847 5.1885996 2.452523
-0.005984867 -0.29624125 -0.29057372 5.0291514 0.4573657 0.14270735 0.17714442 0.003738309
0.22798273 0.15189146 0.1515206 0.05142133 -0.08298213 0.035017237 -0.09466983 -0.07721265
-0.050241385 0.26098463 0.23295048 0.023447283 2.836769 4.344651 0.020544052 -0.17652363
-0.02582413 -4.7671437 -0.037641622 -0.252936 0.1704347 -0.11452838 3.0612612 -2.617286
-0.18272504 -0.9520932 0.37004402 -4.098597 0.42300457 -0.0033502558 0.36946344 0.24902272
0.6201846 0.017669216 -0.15979655 0.085553095 -0.12734935 -0.005642398 0.100398324 0.078025945
0.06018432 0.43527028 0.010170077 0.07771574 -4.2591076 -3.4656217 -0.14136714 0.08232872
0.10133569 -0.20799322 -0.20198466 -0.41192448 -0.16574593 -0.21490128 -4.2024302 -1.7328973
-0.013688276 -1.0839415 0.5212225 -3.7927773 0.22304758 -0.14055185 0.5654058 0.03032245
0.7257117 0.079320714 0.13412501 -0.080965824 -0.04320088 -0.17004298 -0.0957666 -0.089861535
0.0717483 0.4708245 -0.0871077 0.091308475 -4.445145 -3.3184254 -0.04617998 0.17637427
-0.14544272 0.092310704 -0.1579012 -0.20956399 -0.10478105 -0.08588385 -5.1378183 -1.721147
0.26652616 0.89155537 -0.4064923 4.417013 0.13354786 0.013454656 0.020259667 -0.01182801
-0.57319915 -0.12551938 -0.0866724 0.031247899 -0.038224116 -0.19712576 -0.12362695 0.15230042
0.018666275 0.66714275 -0.12767224 -0.14548655 3.3771656 4.0297656 -0.13657269 -0.17347029
0.13835345 1.0085844 -0.11056304 0.1610563 0.08357014 0.26760167 3.079644 0.0907094
-0.17122576 -1.5867536 1.551734 -2.7025106 -0.94524723 0.107866436 0.059841484 -0.233931
1.3566735 -0.046157926 0.08961536 -0.098354325 -0.024077877 -0.17865622 0.011584973 0.12541105
-0.025099337 0.398541 0.17725135 0.09406714 -4.351154 -2.3637738 0.16991876 0.16837142
0.14767693 0.34592974 0.14391235 -0.54503214 0.16840516 1.0342768 -3.9017537 -1.7871543
0.012206105 0.4293906 -0.5099339 4.7015014 0.19095267 0.16508767 -0.017563349 -0.06300044
-0.4054743 0.0688567 -0.0043189377 0.008276612 0.0021184534 0.036424384 -0.065936044 -0.13828038
-0.18008676 0.37365526 0.10008456 -0.08769959 3.3792403 4.2122583 -0.06649755 -0.03638099
0.13282882 0.35532326 -0.11163439 0.09582105 -0.087044954 -0.18247479 3.521076 3.5141902

fc2.bias f4 [32]
00000000: e121 61be e0e9 25bf 52d8 e7be 2d93 4a3e
00000010: fb38 3c3e a97a eabd 7403 f9bb a74d 0bbe
00000020: 04c8 2bbe f758 0d3e 31ad 06bf b396 04bf
00000030: 6591 563e 58da 47bd d0b5 93be 745b 813e
00000040: bc97 823e 4ec4 eabd 60b5 c13e 05f6 97be
00000050: f84f 8dbd 0a1d 6bbe 7631 023f b55c 1dbf
00000060: 578b a0bd 841c 10bf 933f 6abe 48e5 aabe
00000070: 0d39 5cbf dd82 56be bff1 8abd 38a2 3cbe
-0.2198558 -0.6480999 -0.45282227 0.19782706 0.18381111 -0.11449177 -0.0075992886 -0.13603841
-0.16775519 0.13803469 -0.5260802 -0.5179245 0.20953901 -0.048792213 -0.2884965 0.25265086
0.2550639 -0.114632234 0.3783369 -0.29679886 -0.069000185 -0.22960296 0.5085672 -0.61469585
-0.07839077 -0.5629351 -0.22875814 -0.33378053 -0.8602455 -0.20948358 -0.06784391 -0.18421257

fc3.weight f4 [32, 32]
00000000: 1aad 3dbe d2b0 303d 58db 7fbe 25a1 ce3c
00000010: 5014 92be 00b1 c9bd 9643 143b a979 a63d
00000020: 070d 213e 7343 8cbb 722b 6d3d 0c27 d03c
00000030: df6e 6e3c 58c7 053d a533 483e f317 4abe
00000040: d97a 64be 3de2 7fbd 0b22 23be 5c85 063d
00000050: c6f2 21be 79e2 81bb 8ae1 c5bd 7c9e b0bd
00000060: d634 3cbe 9acf cbbd c742 f73c adf2 c03d
00000070: 4a1d 29be 4216 433d 4a53 7f3c 174a 26bd
00000080: 2da1 1f3f 82b6 efbf e031 603f eac0 813f
00000090: 1fb5 c83f 16c7 81bf 8403 b13f 81aa 15bf
000000a0: b8bb bf3c 2b30 aa3f 89ff 6b3f 2cbd 163f
000000b0: f4fb e83e 908e 16bd 73cb 643f d737 7b3e
000000c0: 41f5 08c1 79ff 193e b32f bd3e ffc3 053f
000000d0: 440c 24bd 1874 d4be c7f2 023f 4bf0 94bf
000000e0: 7166 803f 2199 2ebf 9715 5f3d 8fbc fd3e
000000f0: bd9a 533c a893 b2bd e289 3f3e 4c29 673d
00000100: b63e dd3e 495c 2bc0 f56a 0ac1 90bf 51c0
00000110: 297d babf 1902 a83f 432e 0ac0 a394 1e3f
00000120: db29 1c3e 8644 eebf 29e3 85c0 eab8 6ec1
00000130: dffb 56c0 4a90 563d 482d 81be 966c 1bbd
00000140: c023 cd3f b6b5 7dbd 2baf e8bf 10e1 4abf
00000150: 2c89 0dbd 1551 893f 3f29 28c0 fc46 01c0
00000160: 4be2 b7bf 4e14 2cc0 d294 163f 13de 53bf
00000170: a9cc 1ec1 fcec 99bd 20e0 ea3b 7742 33be
00000180: b276 a43f cac8 843e 8f4a 813f 99c2 7fbe
00000190: 3467 95be 09d0 ae3e 00af 0bbe 5f57 98be
000001a0: e5d6 123e cce0 1a3d ced7 4c3f 51f2 903f
000001b0: 8be9 4cbf bba9 04bd 1cf0 7f3f f355 643e
000001c0: df93 6fbe 2159 0fbe 3d2e b8be 02cc 633f
000001d0: 2e6c d53d eda8 3e3f 2ec1 24be 4b48 36bf
000001e0: 5eda 973f 5276 3bc0 f29f 6d3f c5a7 043f
000001f0: 735e fc3f 5e1f b4bd 59db 7ebd 8c2d 033d
00000200: c9ea d83d 4e92 71c0 fcbe 32c1 967b a5c0
00000210: d30e 7dc1 69b3 c33f 04a7 82c0 fb51 3e3f
00000220: 9868 2c3d ea42 20c1 8ebc 79c0 a14e dfc0
00000230: e37b 0ec1 94a8 a4bd 4e23 b3bf e181 82bf
00000240: d887 ab3f 608e 5d3e bc6f 30bf bf2f fc3c
00000250: 48c5 a9bd 6664 383f bd33 29bd 37ba 03c0
00000260: 9883 81c0 29cd b3be 0945 813e 043f 13be
00000270: ae29 c7be ef69 2e3d ec82 9f3d e577 5ebd
00000280: 7dfa 15bf 052b f3bf 681d c8bf 056e ed3e
00000290: 7274 72bf 1c8a 373f 57ff 8dbf 2e01 063e
000002a0: 5670 e53d a807 523e 7140 febf 4f99 81bf
000002b0: 3971 71c0 303a 15be cc62 c0bf 11f0 933e
000002c0: d47f 9b3f 5620 c2bd d035 62be 2e1f bbbe
000002d0: 826d 87bb 5612 85bd 5d6f 6d3e 596d 39bf
000002e0: f774 88bf 7c78 cc3f 946b c9be d610 a53b
000002f0: 0b8f e5be 8aa2 bf3d 8ba2 113d 9b4e 56be
00000300: 1f85 31bd e897 9fbd 8841 593d 5f30 32be
00000310: 7945 b3bd c5ce 0a3e 409e 13be f579 da3d
00000320: c9f8 0dbe 031e e0bd e4b8 31be 0a0c 30be
00000330: 365d 56bd 1ebb c03d b5b0 04be b876 29be
00000340: 2c71 1d3d 3252 e03d b2ae c0bd 9755 d9bd
00000350: b8d6 2fbe bedd b1bd e800 6d3d 92c6 aa3d
00000360: 0e2d a33d 380d 813c 503b 013e a441 f6bd
00000370: 3b46 16be bcbc 2dbe 2112 2dbe 35e3 283e
00000380: e3eb 7cbf 24d3 59c0 7ca5 41c0 6362 753e
00000390: 6248 39c0 7260 7a3f 7b3b 79bf 8c1a 773e
000003a0: a628 f73d 6eb0 3fc0 f452 4ec0 09d0 3140
000003b0: 647e 45c0 66c2 f13d 8665 f6bf 4138 5bbd
000003c0: a60f bf3f b813 003d f735 093f 4bbd 71be
000003d0: be77 85bc 0f41 d63e 21d3 fc3e 4bf3 89bf
000003e0: 3b8d f9bf 9c85 ff3f 4a11 c0be 41df 86bd
000003f0: 364b b03f 45f5 263d b924 193e b667 d9bd
-0.18523064 0.04313738 -0.24986017 0.025223324 -0.28531122 -0.09848213 0.0022623292 0.081286736
0.15727626 -0.0042805015 0.05790276 0.025409244 0.014552801 0.032660812 0.19550951 -0.19735698
-0.22312488 -0.062471617 -0.15930955 0.032842025 -0.15815267 -0.003963765 -0.09662159 -0.086239785
-0.1837953 -0.09951706 0.03018321 0.09421287 -0.16515079 0.04762865 0.0155838225 -0.040598
0.6235531 -1.8727572 0.87576103 1.0136998 1.5680274 -1.0138881 1.3829198 -0.58463293
0.023404941 1.329595 0.9218679 0.58882403 0.45504725 -0.036757052 0.8937294 0.2453302
-8.559876 0.15038861 0.36950454 0.5225219 -0.04005076 -0.41494823 0.511517 -1.1635832
1.0031263 -0.68202406 0.05446395 0.4955792 0.01291531 -0.087195694 0.18704942 0.05643587
0.43211907 -2.6775076 -8.651113 -3.277317 -1.4569446 1.312564 -2.1590736 0.6194555
0.15250342 -1.8614662 -4.1839795 -14.920145 -3.359123 0.0523837 -0.2522986 -0.037945352
1.6026535 -0.06194087 -1.8178457 -0.7924967 -0.034554645 1.0727869 -2.6275175 -2.0199575
-1.4365934 -2.6887393 0.5882083 -0.82760733 -9.924966 -0.07515904 0.007167831 -0.17505823
1.2848723 0.2593444 1.0100878 -0.24976577 -0.291803 0.34143093 -0.13640976 -0.2975416
0.14339788 0.03781204 0.8001679 1.1323949 -0.8004386 -0.03238843 0.9997575 0.22298412
-0.23396252 -0.13998844 -0.35972777 0.88983166 0.10421024 0.7447651 -0.16089317 -0.7120406
1.1863515 -2.9290967 0.9282218 0.51818496 1.9716324 -0.08795045 -0.062220905 0.03202586
0.10591657 -3.7745547 -11.171627 -5.171336 -15.816119 1.5289127 -4.0828876 0.7434384
0.042091936 -10.016336 -3.9021335 -6.9783483 -8.905246 -0.08039966 -1.3995149 -1.0195886
1.3400831 0.21636343 -0.68920493 0.030784486 -0.082895815 0.72028196 -0.041309107 -2.0582407
-4.0473137 -0.35117462 0.25247982 -0.14379507 -0.38898987 0.042581495 0.07788643 -0.05431356
-0.5858534 -1.8997504 -1.5633974 0.46373 -0.9470893 0.71695113 -1.1093549 0.13086388
0.11203067 0.20510733 -1.9863416 -1.0124911 -3.7725356 -0.14572978 -1.503015 0.28894094
1.2148385 -0.09478824 -0.2209084 -0.36547226 -0.0041329274 -0.06497638 0.23187013 -0.72432476
-1.0660695 1.5974269 -0.39339888 0.0050374074 -0.44835696 0.09357174 0.035555404 -0.20928423
-0.043339845 -0.07792646 0.05304101 -0.17401265 -0.08753485 0.13555439 -0.14415836 0.10667793
-0.13864435 -0.10943224 -0.17355686 -0.17192093 -0.052334987 0.0941069 -0.12958033 -0.16549194
0.038438007 0.109531775 -0.094083205 -0.10612028 -0.17171752 -0.08684872 0.057862192 0.083386555
0.07967578 0.015753374 0.12620282 -0.12024239 -0.14675228 -0.16966528 -0.16901447 0.16492923
-0.98797435 -3.403512 -3.0257254 0.23963313 -2.895043 0.97803414 -0.97356385 0.2413122
0.120683 -2.9951434 -3.223813 2.7783225 -3.0858393 0.11804657 -1.9249732 -0.053520445
1.492665 0.031268805 0.5359797 -0.23607366 -0.01629245 0.4184651 0.4937983 -1.0777372
-1.9496225 1.9962649 -0.3751319 -0.06585551 1.3772953 0.04076125 0.14955415 -0.106154844

fc3.bias f4 [32]
00000000: 3245 b7bd 6193 b7be 4d06 fbbd 0f46 5e3e
00000010: db77 c53f fd2a ac3f 736a 07be 4059 bf3f
00000020: 635d 293f 7a26 2ebe efaa 9abe f0b9 83be
00000030: 7630 acbf b1ea 87be 2f6f 0a3f 2a36 a3bd
00000040: 0eb5 e83e b32e 7abe 9662 4f3e 9e6c 44be
00000050: 522d 7fbf 27d7 253f 97c8 1c3f 04ab 013f
00000060: 62ec 133f 3d48 303f f638 193f efe2 dabe
00000070: e7ca 13be 3d7e 00be 32ea 873e d32c 7e3f
-0.08948745 -0.3585463 -0.12257061 0.21706413 1.5427202 1.3450619 -0.13224201 1.4949112
0.6615812 -0.17006865 -0.30208537 -0.25727797 -1.3452289 -0.26546243 0.540759 -0.07969315
0.45450634 -0.24431877 0.20252451 -0.19182059 -0.9967853 0.6478142 0.61243576 0.50651574
0.57782567 0.68860227 0.5985254 -0.42751262 -0.1443287 -0.12548156 0.26545864 0.99287146

lstm.weight_ih_l0 f4 [24, 1]
00000000: 5af1 4c3f 66e5 433f 66af bebf 08b8 9dbf
00000010: 017a d23e 3a26 02bd 7983 65bf 292f 4cc0
00000020: 5cc9 953e 5852 b73e fa79 9f3f 43a0 b4be
00000030: 5962 fe3e 2011 723f 334e afbf 7208 9cbe
00000040: f8e3 94bf 3d72 b23d b2b2 653f 2df2 cd3f
00000050: 9452 77bf 46b7 dd3f 6eb5 bd3f 5966 d8bf
0.80055773 0.7652191 -1.4897277 -1.2321787 0.41108707 -0.031774737 -0.89653736 -3.1903784
0.29255188 0.3580501 1.2459099 -0.3527852 0.49684408 0.9455738 -1.369574 -0.30475193
-1.163207 0.087131955 0.8972579 1.6089531 -0.9661038 1.7321556 1.4820993 -1.6906234

lstm.weight_hh_l0 f4 [24, 6]
00000000: 93f2 c3bf fdc3 c4bf 031a 3240 4ecd 213f
00000010: bf27 71bf 7bd1 bebe 4a83 f9be 6f61 3ac0
00000020: 45b7 a83f 68c4 c93e 7b1e f1bf 8bd3 7ebe
00000030: 0b6d e0bd 4564 e43e 0dd7 16bf badd f53e
00000040: 8cb4 1fc0 48c5 4e3e f857 12bf 4d32 a0bf
00000050: 021c 39bf 9a2e 1bbf a867 393f 32ae bcbf
00000060: 3815 9e3e 76ff cf3e b04b 693f 60f8 b13e
00000070: 7197 403f 41d9 9c3f 101b 9a3c 1889 5abf
00000080: c9ce 29bc 1be3 81be 037b 153f 9668 86be
00000090: 8157 51be f022 3f3f 15f1 e6bf f274 163c
000000a0: 0955 82bf 120d a03f fa7d 223f c6ea 87be
000000b0: 81ed 03bf bbe5 6a3e c368 f83f c534 c5ba
000000c0: 0f0f 07bd c520 003f b297 c13e 7c7d a4be
000000d0: a6f8 3bc0 4c9f 193e bdd0 01c0 d440 fdbf
000000e0: 2320 33bf b275 00bf ff88 af3e 8003 d3be
000000f0: 2ef0 a6bf 7e1d 02c0 f615 33be 730e 9cbf
00000100: 7d52 153e 97f1 f7be 994f 9dbf bcea 10c0
00000110: 5b55 3740 7979 a33b a146 27c0 fcd9 6bbf
00000120: 954d 913f 627a cb3d f6e1 333e 6adc 013f
00000130: 601a c53f 598d 853f a19c f13d 67fa d43e
00000140: 2ca6 133f 7192 b03e 8bc6 cd3f a3b4 103f
00000150: e29b 1dbf 4221 d63e aabe 153f 8380 21bf
00000160: a523 ddbf 8e08 74bf a743 0940 f0dd 4b40
00000170: f797 ba3e 776b 3cbe 4ba2 89bf 5fa6 ca3f
00000180: 4a91 8abf 0d63 bebf 7b14 bc3f b816 5a3e
00000190: 77dc e5bf 646a 92bf 2107 0e3d 4d2e 7f40
000001a0: 2dd3 423f 9839 2a3e 8fbf b03f 75ef 0ebf
000001b0: f89b 43c0 08cc 85bf 0416 463f c546 40be
000001c0: e5ae 803c 87d3 a9be 7ff1 253d 3921 0fc0
000001d0: 6614 b83e 91c4 8cc0 2a7d 9ebf 986d 88be
000001e0: 1358 063f 30f9 8a3f 326c d83f 34b8 e03d
000001f0: d470 34c0 b436 493f 3d80 c5be 7be5 133e
00000200: 6dda 783f 0ce5 dc3e 05d0 3ec0 0efe 08bf
00000210: 6a2e d2be 88f5 373f 5c34 0c40 07e0 01bf
00000220: b416 75bf 4958 d93c 8ef1 ba3e 2a5e c13d
00000230: 0cef 833e c4e2 34bf 5b80 12c0 7ebe 6a3e
-1.5308403 -1.5372311 2.7828376 0.63203895 -0.9420127 -0.37269196 -0.48732978 -2.9121969
1.318093 0.3940766 -1.8837427 -0.24885385 -0.10958298 0.4460775 -0.5892189 0.48020726
-2.4953947 0.20192444 -0.5716548 -1.251535 -0.7230836 -0.60617983 0.7242379 -1.474066
0.30875564 0.4062459 0.91131115 0.34759808 0.7523108 1.2253801 0.018811733 -0.8536544
-0.010364243 -0.2536858 0.58390826 -0.26251668 -0.20443536 0.74662685 -1.8042322 0.009183155
-1.0182201 1.2503989 0.63473475 -0.26546305 -0.5153428 0.22939198 1.9406971 -0.0015045634
-0.032973345 0.5005 0.37811047 -0.32126987 -2.9370513 0.15002173 -2.0283654 -1.9785409
-0.6997091 -0.5017959 0.34284207 -0.41213608 -1.3042047 -2.03305 -0.17488846 -1.219191
0.14582248 -0.48426506 -1.2289916 -2.264327 2.8645847 0.004988846 -2.6136858 -0.9212949
1.1351801 0.09935452 0.17566666 0.5072695 1.5398674 1.0433761 0.11797453 0.41597292
0.57675433 0.34486726 1.6076216 0.5652563 -0.61565983 0.4182225 0.58494055 -0.6308672
-1.7276503 -0.95325553 2.1447542 3.185421 0.36444065 -0.1840037 -1.0752653 1.5832022
-1.0825589 -1.4873978 1.469375 0.21297729 -1.7957906 -1.1438718 0.034674767 3.987201
0.7610348 0.16623533 1.3808459 -0.5583413 -3.0563946 -1.045289 0.77377343 -0.18776996
0.015708396 -0.33169195 0.04051351 -2.2364028 0.35953063 -4.398995 -1.2381947 -0.26646113
0.5247814 1.0857296 1.6908019 0.10972634 -2.8193865 0.78599095 -0.385744 0.14443009
0.9720829 0.431435 -2.9814465 -0.53512657 -0.41051036 0.71859026 2.1906958 -0.50732464
-0.9573777 0.026531355 0.36512417 0.094417885 0.25768316 -0.70658517 -2.2890842 0.2292423

lstm.bias_ih_l0 f4 [24]
00000000: 6ff8 d9be e467 02bf 3259 5bbf 73a8 d93d
00000010: a311 44bf caf4 18bf ae70 36bf 64e8 d93e
00000020: 3557 bdbe a283 b93e d1c2 bc3f 6bdf 9e3e
00000030: 5efe 0bbf 19c9 4cbf 11d9 863f a5bc 55bf
00000040: 5f59 dbbc a7f7 a23e 9ddc 6d3f 467b 3c40
00000050: 9f75 30bf d810 3cbe da92 083f c5da a13e
-0.42572352 -0.50939775 -0.85682976 0.10627832 -0.7658941 -0.5974852 -0.71265686 0.42560112
-0.36980596 0.3623324 1.4746953 0.3102983 -0.5468501 -0.7999435 1.0534993 -0.83490974
-0.026776014 0.3182957 0.92914754 2.945024 -0.68929476 -0.183658 0.5334908 0.3161222

lstm.bias_hh_l0 f4 [24]
00000000: 0e57 a4bd a8da 96bb 6dc3 46bf 635a 86be
00000010: 2f5a bfbe cce9 bdbe f052 d8bd 06f8 85be
00000020: c838 d6be 8125 44bd 6774 c33f 79e4 993e
00000030: 7871 0cbe 2b7d 2ebf 93be 123f c850 75bf
00000040: fbd2 73bd 333a 803e d3f1 d13e 42e0 3040
00000050: 395a 51bf cc71 b6be 4e08 843e 14ea 1b3f
-0.08024417 -0.0046037026 -0.77641946 -0.26240835 -0.37373492 -0.37092435 -0.10562694 -0.2616579
-0.41840196 -0.04788733 1.5269898 0.30057123 -0.1371516 -0.6815974 0.57322043 -0.9582639
-0.05952738 0.25044402 0.4100481 2.7636876 -0.81778294 -0.35633695 0.25787586 0.6090405

fc4.weight f4 [2, 6]
00000000: 9228 053f 3f16 4a3f f21b bfc0 c411 a3bf
00000010: a305 2440 ec3f 113f ef58 29bf b802 e4be
00000020: ed05 ba40 7352 673f 16d7 2fc0 299f 55bf
0.5201503 0.78940195 -5.9721613 -1.2739797 2.562844 0.5673816 -0.66151327 -0.44533324
5.8132234 0.9036018 -2.7475028 -0.83445984

fc4.bias f4 [2]
00000000: 71a7 933f 2a2b 1abf
1.1535474 -0.60222113
