data/model/detection/best_pH_ANN_model.pth (torch, 176632 bytes, 8 tensors)

fc1.weight f4 [256, 7]
000000 60 bf cf be cd 25 52 be 4d e3 f6 bc 5b ec c2 3e
       -0.40575695 -0.20522232 -0.030137682 0.3807095
000010 9d 8d 27 bf 02 c4 3a bd a6 f4 ca 3e 40 a1 8a be
       -0.6545046 -0.045597084 0.39639777 -0.2707615
000020 a7 8a 52 3e 67 16 94 3e 19 c0 c7 be 1a 06 88 3e
       0.20560704 0.28923342 -0.39013746 0.26567155
000030 1b 10 77 3e 71 bb 5a 3d 73 5f 06 3e ee 45 28 3c
       0.24127237 0.053401414 0.13122348 0.010270579
000040 25 e2 a9 bd 2a 7c 17 3e 39 43 83 3e 43 3d 9e bc
       -0.08295087 0.14793459 0.25637224 -0.019316321
000050 1d ef 83 bf 9a ca a0 bd a1 04 16 3d 5b bd c8 bc
       -1.0307347 -0.07851143 0.03662551 -0.024504354
000060 c4 65 ec be d4 ed 49 bd d3 8c b0 be ce d4 29 3f
       -0.4617139 -0.049299076 -0.3448244 0.6634034
000070 10 4c e6 be bf 55 b5 be 36 1b be be 3d 1b a8 3e
       -0.44979906 -0.35416982 -0.37130135 0.3283328
000080 b4 85 d5 be a2 49 bd ba 10 4c 3a 3e 68 ce 7e be
       -0.4170357 -0.00144415 0.18193078 -0.24883425
000090 e9 5e 96 be 0a 16 12 3c a3 05 e4 be 6e f6 3c bd
       -0.29369286 0.008916387 -0.4453555 -0.04613345
0000a0 10 5d 0a 3d 01 0d 46 be 4a 95 92 be d6 0d 2c 3e
       0.033780158 -0.19340898 -0.28629524 0.16802153
0000b0 70 19 34 3d be f0 14 3e 80 b7 f6 3d 9c f0 91 3d
       0.04396957 0.14544961 0.120467186 0.07125971
0000c0 c8 1a cc bd 4f 15 d2 3d 33 ea 0d 3e bc 54 fd bd
       -0.099660456 0.102579705 0.13858871 -0.123696774
0000d0 30 6d 93 3e 35 ea c4 be f4 e2 35 3e 4e f9 bd be
       0.2879424 -0.38459936 0.17762357 -0.37104267
0000e0 0b c7 99 be 2c fa 11 3e d4 de 09 be 4a b8 de 3d
       -0.3003467 0.14255589 -0.13463908 0.10874994
0000f0 9d 75 a2 bd b0 5a ee bd 39 aa 18 3e 3c 90 5f 3e
       -0.07932589 -0.11638391 0.14908685 0.21832365
000100 98 79 31 3e 95 93 d1 be 7f a0 7a be 44 17 a7 be
       0.1733154 -0.4093291 -0.24475287 -0.32634938
000110 94 f1 ce 3d bf cb bf 3f d3 31 fb bd db 24 6e be
       0.10104671 1.4984053 -0.122653626 -0.23256247
000120 72 c7 69 be b8 39 9b 3e 17 ee 04 bf b8 74 11 bf
       -0.22829989 0.30317473 -0.51925796 -0.56818724
000130 18 38 42 3e 1c 17 0e bf 01 58 e5 be b4 d0 b3 be
       0.1896671 -0.5550401 -0.44793704 -0.35120165
000140 47 28 e9 bd 92 51 11 bf f3 ee 3c bd de 0c a4 3f
       -0.113846354 -0.5676509 -0.046126317 1.2816427
000150 95 4b 88 be b2 41 93 3e 0f c1 2c be 5b 71 4b be
       -0.26620165 0.2876106 -0.16870521 -0.1986746
000160 b6 8c fc bc ba 94 b3 be c9 30 50 be ac d3 26 bd
       -0.030828815 -0.35074407 -0.2033111 -0.04072921
000170 93 13 15 bf fd e4 b9 bc 38 c2 a8 3e 45 5e f5 be
       -0.5823299 -0.022692198 0.32960677 -0.47923484
000180 1d 31 66 be 8f dd c2 3e 5a 69 e9 be 14 76 b8 be
       -0.22479673 0.3805966 -0.4558819 -0.36027586
000190 e8 0f d4 bd e7 3e e3 be 2e b4 cc 3d 2b 95 0f bd
       -0.103545964 -0.44383928 0.09995304 -0.035054367
0001a0 2c 34 d7 be c6 a9 de be ad 69 d9 3d d4 59 46 3e
       -0.4203199 -0.43488902 0.10615859 0.19370204
0001b0 a9 e7 59 be 9b 4f 16 3e 64 b0 28 be 88 37 2b 3e
       -0.21279778 0.14678805 -0.16473538 0.16720402
0001c0 62 c5 89 3d 57 f9 2d 3e 93 ed 3d 3d 39 b1 41 be
       0.06727101 0.16989647 0.046369147 -0.18915261
0001d0 8c ef df bd 32 c1 64 3e d1 eb 8a bf 96 9b 19 3e
       -0.10934362 0.22339323 -1.0853215 0.15000758
0001e0 e0 e7 2f 3c 10 4b 41 be c4 46 84 be a4 58 03 be
       0.010736436 -0.1887629 -0.2583524 -0.12826782
0001f0 dc 49 9d be b4 e3 fe 3d 91 fb 85 bd c2 78 e4 be
       -0.30720413 0.12445775 -0.06542123 -0.4462338
000200 d6 0e 0e bf 89 8a 27 3e 63 07 d8 be 64 23 27 bd
       -0.5549139 0.1636144 -0.42193136 -0.040805236
000210 00 1f 31 3e be 9c ac be 6c 61 8f be 2f 9c 82 be
       0.17296982 -0.33713335 -0.28004014 -0.25509784
000220 56 bc 36 3e f2 cc 05 3e 38 df 6b bd 12 e2 3b be
       0.17845282 0.13066462 -0.057585925 -0.18347958
000230 51 bc 23 3e 44 0d 33 3e 5e 6b e3 3c 2f e2 a0 be
       0.15989806 0.17485529 0.027761158 -0.31422564
000240 d7 24 86 be 97 e3 ac 3d ee 25 62 3e 44 97 18 bf
       -0.26199982 0.08441847 0.22084782 -0.59605813
000250 ed 2d cd be 25 7f 21 3d 84 f4 ed bd 3d ab 30 be
       -0.400741 0.039427895 -0.11618903 -0.17252822
000260 c8 58 03 3b 5a f8 ed be 04 9f dc 3d d0 90 ca 3c
       0.0020041931 -0.4647854 0.10772517 0.024727255
000270 b0 bc ae 3d 88 07 e0 3d ce db 0d be c4 54 cd bd
       0.08532083 0.109389365 -0.1385338 -0.100259334
000280 56 3e 20 3e 5d 7a 85 3d 51 bc 4e be b9 4b aa 3d
       0.1564878 0.065174796 -0.20189025 0.08315224
000290 68 da 56 3e 56 27 60 be 35 a1 c4 be dd e2 b2 3f
       0.20981753 -0.21890005 -0.3840424 1.3975483
0002a0 9f 61 3a 3e 60 51 e4 3d 23 95 b2 3e 7e 38 65 be
       0.18201302 0.111483335 0.34879407 -0.22384831
0002b0 a3 49 99 3c 67 47 c0 3e 47 42 38 bf 10 5b 3d bf
       0.01871187 0.37554476 -0.7197613 -0.73967075
0002c0 e2 6d 2c bf 2e fe a1 be 68 21 d0 bd 38 e7 72 bf
       -0.6735517 -0.31639236 -0.10162622 -0.9488406
0002d0 fb d9 13 bf c2 eb 25 3f 80 94 36 bf 7c f1 24 bf
       -0.57754487 0.6481286 -0.71320343 -0.64430976
0002e0 9d f6 14 be 9f 89 b9 bf 84 15 06 3c 1d b5 7e be
       -0.145472 -1.4495124 0.008183841 -0.24873777
0002f0 33 66 38 3d f7 cb d8 be bc 12 be 3d 8a 09 f8 be
       0.04501934 -0.42343113 0.09280917 -0.48444778
000300 b2 62 13 bf af 00 d4 be 8a 2e 0e be 09 e6 97 be
       -0.5757247 -0.41406772 -0.1388494 -0.2966769
000310 31 45 a9 3e 30 2d 7a 3d 58 b4 87 be a0 44 20 3c
       0.330606 0.06107825 -0.2650478 0.0097819865
000320 e8 05 b0 be 20 ed a3 bc 70 fc 95 be 67 30 3a be
       -0.34379506 -0.020010531 -0.29294157 -0.18182527
000330 0a 07 30 3e 8a 80 0c bd 82 b0 0c 3e 07 8e 4f be
       0.17190185 -0.034302272 0.13739207 -0.20269023
000340 b7 3a af be a8 b9 38 bf d2 61 66 bd 5e 2e 51 3e
       -0.34224483 -0.7215829 -0.056245632 0.20427844
000350 cb 4e c1 bd 12 11 40 bd c7 de 9f 3e 69 1d 44 3d
       -0.09438857 -0.04689128 0.31224653 0.04787961
000360 83 1a 8f bf 4e 86 0b bf 6f 8d 32 bc f0 53 ff be
       -1.1179966 -0.5450181 -0.010897978 -0.49868727
000370 37 ca 12 3e 6f 0a 88 be a9 1c 34 be 7a bd 46 3e
       0.14334951 -0.2657046 -0.17589058 0.19408217
000380 eb 61 95 be 8a d8 ad be 12 eb 0f bf 0f 4c 3d bf
       -0.29176268 -0.3395427 -0.56218064 -0.7394418
000390 8d 6b 33 bf 74 66 01 bd f3 bd 88 be ac 49 18 bf
       -0.70085984 -0.031591848 -0.2670742 -0.59487414
0003a0 74 5c f6 bd ba fc be be 9e fe d9 3d 2c 05 38 3d
       -0.12029353 -0.3730219 0.106442675 0.044926807
0003b0 8a 42 eb bd ac 18 48 bf b0 ca 24 bf fb b5 c9 be
       -0.11487301 -0.78162646 -0.64371777 -0.39396653
0003c0 da 94 ba bd 7f d8 3f be b4 fa 67 bf 32 8e 0e bf
       -0.091104224 -0.1873493 -0.9061692 -0.5568572
0003d0 fc 73 8b be 55 0f 05 3f 0e df 25 be 3b b8 9e 3e
       -0.27236927 0.5197652 -0.1619837 0.30999932
0003e0 39 c5 7e bf f8 4f bc bf c1 49 73 3d 82 03 3e 3f
       -0.9951969 -1.4711905 0.05939651 0.742241
0003f0 73 22 a4 bd 20 b3 da bd 08 cf 52 bc ba da f2 bc
       -0.08014383 -0.10678697 -0.012866743 -0.029645313

fc1.bias f4 [256]
000000 7b c5 f5 bd b4 2a cb be 52 be 33 3f 23 d9 01 bf
       -0.12000557 -0.39681017 0.7021228 -0.5072195
000010 ee 14 fb bd 3b 83 a3 3d 0a 16 a1 be 51 ac 2f bd
       -0.122598514 0.079840146 -0.31462127 -0.042888943
000020 97 f1 e9 bd bd 90 df be e1 fd 03 be 7f 06 99 be
       -0.11423033 -0.43665114 -0.12889816 -0.2988777
000030 e6 eb 13 3d 0b a1 dd bd 62 e6 3e 3e 4c 64 17 be
       0.036113642 -0.10821732 0.18642572 -0.14784354
000040 40 ff 4f 3f db 99 b3 be 01 bc 3a bc 64 90 24 be
       0.81248856 -0.3507832 -0.011397363 -0.16070706
000050 e4 94 5e be e5 16 39 3e d6 fd a2 be b7 1a d4 be
       -0.21736485 0.1807514 -0.31834286 -0.41426632
000060 a9 2a c7 be 66 08 82 3d 4f 6f 19 3f d4 1d 03 3e
       -0.38899735 0.06349258 0.5993547 0.12804347
000070 e4 f4 d5 bd a3 8a b0 3e 08 89 4d 3f 5e 67 33 be
       -0.104471 0.3448077 0.8028722 -0.175199
000080 8e 8d c8 3e 82 cf 7c 3f 97 92 1e 3e bd 9b 72 bd
       0.39170498 0.9875413 0.15485607 -0.059230555
000090 bf ca 3e 3e a0 4e d0 bd 66 29 95 3d 06 f1 2d 3d
       0.18632029 -0.101712465 0.07283287 0.042466186
0000a0 60 3e 2e 3d ca a2 4a 3f 51 6b 99 be 98 cf 78 bf
       0.042539954 0.79154646 -0.29964688 -0.9719176
0000b0 b3 d6 a3 be 85 79 5a 3c 7c 6a 47 3d ac 3c 30 be
       -0.3199974 0.013334637 0.048685536 -0.17210644
0000c0 07 8d 57 bf 73 5c a1 be 72 00 7e 3e 04 07 90 be
       -0.84199566 -0.31515846 0.24804857 -0.28130352
0000d0 b3 16 13 be 8c d6 7d be 40 72 bf bd 77 d6 02 be
       -0.14364128 -0.24788874 -0.09347963 -0.12777124
0000e0 9e 5d 17 3e d8 5b 25 3e 88 3f 9b 3e 90 17 55 3e
       0.14781806 0.16148317 0.30321908 0.2080977
0000f0 87 a7 79 bf 74 44 fb bd 19 d8 55 3b 3d 48 af be
       -0.9752125 -0.12268916 0.0032630025 -0.342348
000100 3e e8 1e be 93 4d 3a be 49 70 84 be 98 80 e8 3d
       -0.15518281 -0.18193655 -0.25866917 0.11352652
000110 28 ba 87 be 78 32 a8 be 6c 29 ec bd f9 88 13 be
       -0.26509213 -0.32851005 -0.11531338 -0.1440772
000120 82 97 76 bf 8e 1b f3 bd b3 46 1c be 97 d1 27 be
       -0.9632493 -0.1187049 -0.15261345 -0.16388546
000130 70 38 ae bc 40 8b 26 bd 9b c1 b3 be 71 ee 9d bd
       -0.021267146 -0.040660143 -0.35108647 -0.07711495
000140 39 21 54 3f 5f da 33 bf cd 73 42 3e a8 18 23 3e
       0.82863194 -0.7025508 0.18989487 0.15927374
000150 35 57 7d be 45 a6 fd 3b 2b 9b 67 3e 58 c4 f0 bd
       -0.24740298 0.007740768 0.22617786 -0.117561996
000160 13 c8 e4 bc 00 23 99 be 20 f0 06 be c5 d7 ad be
       -0.027927434 -0.29909515 -0.13177538 -0.33953682
000170 e7 a1 6e 3e 92 aa 0d be 28 5e 4c 3e 14 66 b1 be
       0.23303948 -0.13834599 0.19957793 -0.34648192
000180 6e a2 de be 20 d7 d2 bc 39 50 31 bd 90 12 b7 3e
       -0.434833 -0.025737345 -0.043289397 0.3575635
000190 f2 3a b3 be 94 b4 50 be 0c 3b 47 be 56 d0 c4 3d
       -0.3500591 -0.20381385 -0.19456118 0.096100494
0001a0 7c 3f ee bc 87 41 bb be cb d6 b5 bd 3e f1 97 be
       -0.029083006 -0.3657343 -0.08878859 -0.2967624
0001b0 22 a1 ef 3d 43 11 64 be ce c7 e6 bd 90 5b 85 3e
       0.117006555 -0.2227221 -0.112685785 0.2604642
0001c0 5e a4 7a 3e da e8 57 be ae b2 67 bd 8b a7 03 bf
       0.24476764 -0.2108492 -0.056566887 -0.51427525
0001d0 40 14 11 3f 17 02 b2 bd d8 5d 75 be 02 4a 09 3e
       0.56671524 -0.08691805 -0.2396158 0.13407138
0001e0 d1 5d c8 bc 61 00 19 3e 45 9f b0 be cd 41 4d be
       -0.024458798 0.14941551 -0.34496513 -0.20044632
0001f0 3f 39 02 be 54 f4 d8 3e 96 89 c5 bd 6b 0e 94 be
       -0.1271715 0.42373908 -0.09645383 -0.2891725
000200 7a c5 98 be 4d a7 81 be 20 03 81 3e 92 ec 81 be
       -0.29838163 -0.25322953 0.25197697 -0.253758
000210 80 08 1f bc 74 9f 13 bd d1 f7 4d be e3 75 b7 be
       -0.009706616 -0.03604074 -0.20114066 -0.35832128
000220 bd bb a7 be e0 f7 52 be a2 76 09 bf dc a2 ea bd
       -0.3276042 -0.2060237 -0.53696644 -0.11456844
000230 48 54 28 3e 83 95 99 be b2 97 af 3e 7c fe 4a be
       0.16438401 -0.2999688 0.34295422 -0.1982364
000240 2a b2 68 be a9 7a 8d 3d 73 74 73 bf 33 dc b8 3e
       -0.22724214 0.06908161 -0.9509956 0.361055
000250 23 0a a9 bd e8 be 98 bd 70 7c 17 be 6e f0 9f be
       -0.082538866 -0.074582875 -0.14793563 -0.3123812
000260 94 29 9b be 36 c2 7f 3f 4f 7d 44 3d f4 ed d6 be
       -0.3030516 0.9990572 0.047971066 -0.4197842
000270 52 f6 23 3e 3f 6e 38 be a9 2c 8f be c4 27 84 be
       0.16011932 -0.18010806 -0.2796376 -0.2581159
000280 aa 66 38 3f cb 35 d4 3e aa 07 63 be 24 aa f4 3e
       0.7203165 0.4144729 -0.22170892 0.47786057
000290 7e 46 96 3d c2 9f 22 be 95 40 4f 3f 4f a5 2b 3f
       0.07337664 -0.15881255 0.8095792 0.67049116
0002a0 96 79 ea bc e2 fa c3 bd 5c c9 97 be 0f f9 ba 3d
       -0.02862243 -0.095693365 -0.29645813 0.091295354
0002b0 6a 9c b5 bd 3e 7e 55 bd 3f ca 4c bf bb d3 10 bf
       -0.08867724 -0.052122347 -0.79996103 -0.56573075
0002c0 30 c4 73 be fb dc 83 be 31 b1 f1 be fc d7 c8 be
       -0.23805308 -0.25754532 -0.472055 -0.39227283
0002d0 da c1 75 bd 2b c0 eb be e7 f2 18 be 5a 6d 8c be
       -0.059999324 -0.4604505 -0.1493641 -0.2742718
0002e0 c5 5d ab be 7c 07 af be 2e 00 29 be 0d fe aa bc
       -0.33469978 -0.34185398 -0.16503975 -0.020873094
0002f0 6a 91 67 bf f8 b7 84 be c4 51 fb bd 61 55 bd be
       -0.9045626 -0.25921607 -0.12271455 -0.369792
000300 f2 83 57 be 6d af 2c bf b1 f8 c4 be 45 98 51 3e
       -0.21046427 -0.6745518 -0.38470986 0.20468242
000310 2a 1a 20 3f 21 55 74 be 41 c3 3f be 65 bf c6 be
       0.62539923 -0.23860599 -0.18726827 -0.38817897
000320 53 73 98 3e e6 b3 ee 3e d8 52 44 be f3 85 71 be
       0.29775485 0.46621627 -0.19172227 -0.23586254
000330 38 75 cb 3c d3 8e 41 3f bf 65 ed 3e 46 cc 42 3e
       0.024836168 0.7560856 0.4636669 0.19023237
000340 00 e9 c8 3d 53 7b 31 3e 20 af 48 3f f7 7e bf be
       0.09810066 0.173322 0.7839222 -0.37401554
000350 18 c7 53 be d7 22 7f 3e d0 04 11 be b5 cf 29 be
       -0.20681417 0.24915634 -0.14161992 -0.1658314
000360 6e 40 ac bd 31 5f 9f be cf 13 03 be 1a 8d 02 be
       -0.084107265 -0.31127313 -0.12800525 -0.12749138
000370 1b 00 4a 3e 54 a0 83 be 65 58 ba 3e d7 34 43 3f
       0.19726603 -0.25708258 0.36395565 0.762525
000380 b0 e1 87 3b 0f b9 05 3e e9 55 05 3d ad 1a 35 3f
       0.004146777 0.13058876 0.032552633 0.7074383
000390 1a a7 0a 3e 4d 47 e5 3d ca 07 8a 3e 46 08 ab 3e
       0.13540307 0.1119524 0.26959068 0.3340475
0003a0 e9 49 42 3f 03 d3 31 3f 1c 2d 93 be 50 68 d2 3c
       0.7589403 0.69462603 -0.28745353 0.025684506
0003b0 d7 3a 20 be 5e 70 16 be 25 b3 ff 3d 88 2d 32 be
       -0.15647446 -0.14691302 0.12485341 -0.17400181
0003c0 aa fa b3 be 82 2a 74 3f 0f 57 94 be 84 93 93 bd
       -0.3515218 0.9537736 -0.2897267 -0.07205871
0003d0 77 03 58 bf 26 51 cb 3d 8f 26 7e 3f 91 16 87 be
       -0.84380287 0.09927587 0.99277586 -0.26384404
0003e0 7b 81 a0 be f4 73 d9 bd 2c ae 9d bd 4e 3c 9b be
       -0.31348786 -0.106178194 -0.07699236 -0.30319446
0003f0 e0 29 64 3c 5c 58 8b be bb 2f 4e be 40 58 51 3e
       0.013925999 -0.2721585 -0.20135395 0.20443821

fc2.weight f4 [128, 256]
000000 2a 6d 8d bd 50 16 aa bc 0f 40 7d bd d7 8f 0c 3d
       -0.06905587 -0.020762593 -0.06182867 0.034316864
000010 15 2e 11 bc c5 0c 03 3c d0 99 97 3c 0c df 5d bd
       -0.0088610845 0.00799865 0.01850596 -0.054167792
000020 0c 70 93 bb 7c a9 2d bc a5 2e e2 bc 08 3d 63 bc
       -0.004499441 -0.01059949 -0.027610132 -0.013869531
000030 56 ee 3b 3d 4c ba 87 bd 2b 61 f5 3b 03 31 3c bb
       0.04588159 -0.0662733 0.00748839 -0.0028715737
000040 4e 32 1b 3d ac 73 c0 3c d8 21 05 3c a6 dc 36 3d
       0.03788977 0.023492657 0.008125745 0.04464402
000050 9c cd 0c 3d 93 ed 16 bd 48 c1 04 3c 61 a9 9e bd
       0.034375772 -0.036847662 0.0081027225 -0.0774715
000060 48 47 d2 bc b2 0e 5d 3d 09 ee 46 3c a9 c8 8d bd
       -0.025668755 0.053969093 0.012141713 -0.069230385
000070 0e a9 14 3d 70 ff 8b bc 93 fd 16 3d 74 57 0d bd
       0.036294036 -0.017089576 0.03686292 -0.03450723
000080 ee d5 04 bd 4e 11 03 bd 14 4d 34 3d ea 85 8f 3c
       -0.03243058 -0.031998925 0.04401882 0.01751991
000090 5b c9 b1 3b bc e0 6e 3d e8 64 c2 bc 7d a4 e4 3c
       0.005425615 0.058319792 -0.023729756 0.027910465
0000a0 b0 1e e7 bb 9f 7b 0d 3d 60 cc 5a bb b5 bf eb 3c
       -0.007053219 0.034541722 -0.0033385977 0.028777936
0000b0 66 4a b0 bc 9d af dc 3c 92 90 7a bd f6 7d 6c 3d
       -0.021519851 0.026939208 -0.06117303 0.057737313
0000c0 8a f4 23 3d 6a 5b 2a bd fa 9e ba bc 2b 21 c1 3b
       0.040028132 -0.041591085 -0.022780884 0.0058938465
0000d0 bf f4 ce 39 a6 16 6e 3d 5e e9 01 3d 07 60 86 bd
       0.00039473732 0.058127068 0.031716697 -0.065612845
0000e0 79 98 23 bd 84 aa 94 bd 5b 21 fa bc d3 e5 21 3d
       -0.03994033 -0.07259086 -0.030533483 0.039525818
0000f0 62 b8 5f 3b 20 4d 51 3d 7b a0 11 bd 5a 11 0b 3d
       0.0034137 0.051098943 -0.035553437 0.033952095
000100 b4 f5 67 bd dc c2 1c 3d 08 e1 96 3c ff 20 32 3d
       -0.056630805 0.03827177 0.01841785 0.0434885
000110 b8 cd 58 bd 86 e9 51 bd bc c5 ed 3c 70 95 ed bb
       -0.052930564 -0.051248096 0.029024951 -0.0072504804
000120 bb a6 39 3d 74 e1 38 3c 0c d8 6c bd 74 92 e4 bc
       0.045325022 0.011284221 -0.057823226 -0.027901866
000130 b0 2a c5 bb 80 da e7 ba b8 c8 3b 3c b6 4e fd bc
       -0.0060170516 -0.001768902 0.011461429 -0.030921321
000140 cc 81 fb 3c b0 fd 00 3d f2 20 9e bc ae 35 3d 3c
       0.03070154 0.031491935 -0.019302819 0.011548443
000150 a8 c1 a0 3c 44 77 80 bd 20 3c d8 bb 42 a8 21 bc
       0.019623592 -0.06272748 -0.0065989643 -0.009866776
000160 30 c6 81 ba 9e ad 7b bd 1a c4 2e 3d 90 99 af bb
       -0.0009900983 -0.06144487 0.042667486 -0.0053588822
000170 86 63 fa 3c 24 fb 30 bc b5 4d 33 bd ca 81 29 bd
       0.030565035 -0.010802064 -0.04377528 -0.041383542
000180 42 6a 36 3d 5f e9 2c 3d 69 f3 f7 b9 0c 52 15 bd
       0.04453493 0.042214748 -0.00047292866 -0.0364552
000190 60 90 bc bc 81 2c 4b bd ee d4 c3 3c aa 8e 5c 3d
       -0.023018062 -0.04960299 0.023905244 0.053846993
0001a0 9d fa 1b bd c8 61 90 3c 81 b5 de 3c 72 d4 07 bd
       -0.0380808 0.01762475 0.027186157 -0.033161588
0001b0 87 d6 0b 3c 09 91 88 3c 56 68 7e bd fb f0 af bc
       0.008535034 0.01667072 -0.06211122 -0.021477213
0001c0 41 6d 7b bd b8 3f 5d bd 19 5e f6 3c 36 ec db bc
       -0.06138349 -0.054015845 0.030074166 -0.026846033
0001d0 8d d2 9d 3c e2 f4 d6 3c 76 0e 29 3d b6 8e 21 3d
       0.019265437 0.026239816 0.041273557 0.03944274
0001e0 fb b1 1c bd f8 cc 48 bc 40 0e 96 3c 6c ad b9 bc
       -0.038255673 -0.0122559 0.018317342 -0.022665702
0001f0 c9 de 2c bd de b0 19 3d f2 19 5a bd 60 19 db bc
       -0.042204652 0.03752219 -0.0532474 -0.026745498
000200 1c 4a 19 bd b8 67 f8 3c d7 72 3f 3c 86 33 56 3d
       -0.03742419 0.030322894 0.011685095 0.05229523
000210 bf fd f8 3b 94 b4 b2 bc 9a 1e 53 bd 60 83 48 bb
       0.0075986083 -0.021814622 -0.051542856 -0.0030595884
000220 c7 e9 85 3c 00 f4 a6 38 aa 97 97 3d d5 0a 06 3d
       0.016346825 7.9609454e-05 0.074019745 0.032725174
000230 b0 4d bf bc c0 b4 9a 3a 38 1d 7f bd 92 e2 c6 3c
       -0.023352474 0.0011803135 -0.062283725 0.024277959
000240 04 b5 29 3d df 0e 63 3c 5d 98 50 3d 62 b6 42 bd
       0.041432396 0.013858526 0.050926555 -0.047537215
000250 51 e9 07 bd be e8 2c 3d d0 4f 00 bd aa 70 c6 bc
       -0.033181492 0.042214148 -0.031326115 -0.024223644
000260 e8 d2 cf 3c 83 38 7c 3c 60 03 16 3d 13 c3 34 3d
       0.025369123 0.015394333 0.036624312 0.04413135
000270 14 ff 80 bd 14 b0 b0 3c 67 4f 69 3b 9d ee 61 3c
       -0.06298652 0.021568336 0.0035600306 0.0137898
000280 9c d1 4c 3d 13 66 08 3d b5 5f 64 bc 53 bd 11 3c
       0.050004587 0.03330047 -0.013938834 0.008895236
000290 b4 e0 b9 bc a7 4a 45 3c 72 fe b7 3b fb 3a 22 3d
       -0.022690155 0.012041724 0.005615049 0.03960703
0002a0 1b ec 32 bd 32 6d 96 bd b3 56 10 be b8 bc 64 3c
       -0.0436822 -0.07345046 -0.14095573 0.01396101
0002b0 2d 8f 71 3b 61 79 1e 3c 57 04 5a ba 51 43 94 bd
       0.003685902 0.009672494 -0.0008316687 -0.07239402
0002c0 9a ce 67 bd 80 87 95 bc 43 15 ea 3b 15 e3 b0 3c
       -0.056593515 -0.018253088 0.007143648 0.021592656
0002d0 e2 d3 30 bd 14 ec bd bc 63 8e 06 3c a6 e4 54 bd
       -0.043170817 -0.02318386 0.008212659 -0.05197587
0002e0 98 16 45 3c c8 2a 1a bd 60 e6 69 bd 4a 76 88 bc
       0.012029313 -0.037638456 -0.05710447 -0.016657967
0002f0 d3 4b 3d bd 5a d9 16 3d d1 b4 5b bc 87 b3 fc bc
       -0.04621489 0.036828376 -0.013409809 -0.030847324
000300 32 5d 63 bd 58 18 c8 bc 9a ed d5 bc 2f 31 4a bd
       -0.0555088 -0.02442567 -0.026114274 -0.04936331
000310 a4 22 5f 3c 4f e1 bb bc 0c 4a cb ba a7 6d dc 3c
       0.013619099 -0.022934584 -0.0015509739 0.026907755
000320 96 53 7d 3c dd af 9b 3b 60 9c bd 3c 51 9f 05 3d
       0.015461823 0.004751189 0.023145854 0.03262264
000330 7c 43 f2 bc 72 b6 26 3d 6c 82 2b bd b9 33 8c 3c
       -0.029573195 0.040701337 -0.041872427 0.017114507
000340 cd 70 d4 3c d8 5a 02 3c da 41 8c bd 01 9e 03 bd
       0.025932694 0.007956229 -0.06848498 -0.032133106
000350 a0 8a 25 3c 9a 0b 16 3c 9d d8 df 3c 2b c8 0c bd
       0.010103852 0.009158039 0.027324969 -0.034370583
000360 f5 a3 20 3c 00 4c 1f ba 15 a6 67 bc e3 e6 c9 bb
       0.009804715 -0.00060766935 -0.014138718 -0.006161557
000370 88 60 76 3c 44 f4 fd 3c 02 05 66 bd 72 69 2e bd
       0.015037663 0.031000264 -0.05615712 -0.04258103
000380 be bf 4a 3d ac 8b 7d bd 28 1e 25 3d 41 8b 46 bc
       0.049499266 -0.06190078 0.040311962 -0.012118162
000390 b2 65 35 bd f1 7b 0c bd 0b b5 4f bc 08 a5 ef 3b
       -0.044286437 -0.034297887 -0.012677441 0.0073133744
0003a0 db 9b fd 3b bb da 8f bc f0 03 3b 3d bd 23 17 3c
       0.0077395267 -0.017560354 0.045658052 0.009224829
0003b0 a1 aa 04 bd 86 1a 83 bd d1 14 5d bd 20 3e 39 3d
       -0.032389287 -0.06401543 -0.05397493 0.045225263
0003c0 b0 dd 54 bc 94 88 0b 3d 46 2a 1b 3d ac 3f 7e 3d
       -0.012992308 0.034065798 0.037882112 0.06207244
0003d0 ff eb 0d bd 82 ab ac bc 20 fc ac bc 1e 90 4f 3d
       -0.03464889 -0.021077875 -0.021116316 0.05067455
0003e0 00 46 f5 3a 84 4c 5a bd ba 65 97 bc e0 1c 5c 3d
       0.0018712878 -0.053295627 -0.018481124 0.053738475
0003f0 64 bc c9 bc 82 43 40 bd ba 61 48 bd 84 4a 01 3c
       -0.024625964 -0.04693938 -0.048921324 0.007891301

fc2.bias f4 [128]
000000 ea 70 89 bd c0 70 88 3e e9 63 7b bd 1c 01 2b 3c
       -0.0671099 0.2664852 -0.06137458 0.010437276
000010 ab 9e 5a be c8 82 ed 3e 7a ee 8a bd d5 17 76 bd
       -0.2134959 0.4638884 -0.06783767 -0.06008132
000020 73 43 91 bd b7 0f 90 3b a6 7b 98 bb 65 e1 51 be
       -0.07092943 0.0043964046 -0.004653412 -0.20496137
000030 af fd 57 bc f4 b8 0a bd f5 1c 78 3d d2 20 bd bc
       -0.0131830415 -0.03386779 0.06057449 -0.023086939
000040 b8 f3 0d be d0 c7 0b bd 8c 9d 3b bd 31 4b 13 be
       -0.13862503 -0.034126103 -0.045804545 -0.14384152
000050 b9 97 96 bc b5 64 4b 3f 1f 9a 71 3b 2a 09 20 bf
       -0.018382894 0.7945054 0.0036865545 -0.62513983
000060 21 d8 9d bd 65 b2 b3 3e 09 c6 64 bd 9a 11 92 bd
       -0.07707239 0.35097042 -0.055852924 -0.071322635
000070 df 45 b4 3b 61 da 06 bf 6d 62 ca bc 97 8e 80 be
       0.0055014933 -0.5267697 -0.024705136 -0.25108787
000080 3c b3 e1 be fd 6b c2 bd b4 ea ce 3d e2 f7 16 bd
       -0.44082057 -0.094932534 0.1010336 -0.036857493
000090 c7 a4 a3 bd 4a 46 ca 3c 28 00 c8 bd 13 98 80 3d
       -0.07990413 0.02469172 -0.09765655 0.06279006
0000a0 89 09 ca bb 05 7c d4 be 03 30 c6 3b 05 a4 65 bb
       -0.0061656875 -0.4150087 0.006048204 -0.003504039
0000b0 27 61 ed 3e eb 49 9e 3e c9 b9 8e bd f4 21 8e bd
       0.46363184 0.3091577 -0.069690295 -0.0694007
0000c0 7e df 89 bd 56 f9 83 3f ea 40 67 bd 17 36 9d bd
       -0.06732081 1.0310466 -0.05645839 -0.076763324
0000d0 b9 33 33 3f b0 49 24 be aa fa 60 3f 50 10 44 3f
       0.700008 -0.16043735 0.87882483 0.7658739
0000e0 75 52 c9 bc cb 00 8a 3c 9c ab 65 bd ec 7a f2 bc
       -0.024575451 0.016846081 -0.056071863 -0.02959963
0000f0 59 93 c0 bd 90 be 2f bf 5b a5 f9 be 86 7e d1 be
       -0.09403104 -0.6865015 -0.4875897 -0.40916842
000100 b2 f3 cf bd 9c c1 06 bd f3 32 8d be 17 2b 29 3f
       -0.10153903 -0.032899484 -0.27577934 0.66081375
000110 c9 e1 d8 be c2 d4 da 3c 2c 4c 0c bf b1 a8 14 be
       -0.4235976 0.026712779 -0.5480373 -0.14517476
000120 22 ed 92 bd 2d 18 9e bc 1f 3b cd 3e 47 7e e1 be
       -0.07174136 -0.019298637 0.40084168 -0.44041654
000130 39 f8 79 bc 5a 2d f6 be 41 a3 1f bd ed 1e c4 bd
       -0.015256935 -0.48081475 -0.03897405 -0.09576211
000140 5b b6 0f 3c bd 7c 89 3f 98 ee b9 bc fc 44 c1 bc
       0.008771504 1.0741192 -0.022696778 -0.023592465
000150 c1 a4 7e 3f c4 d1 2f 3f 58 99 0f bc 9d c0 56 bd
       0.99470145 0.6867945 -0.008764587 -0.052429784
000160 03 28 77 bc 22 42 54 be e7 79 90 bd a5 4f 7a 3d
       -0.015085223 -0.20728353 -0.07054501 0.06111111
000170 45 bf 25 bf e3 b5 b2 bc 7d 96 52 bd 3e fb 4e bd
       -0.6474498 -0.021815246 -0.051413048 -0.050532572
000180 da 59 05 bd 47 cd 81 bc ce 29 3b 3d da 89 ef 3e
       -0.032556392 -0.015844954 0.045694165 0.4678486
000190 74 03 e4 be f1 f3 9e bd e3 67 ea be d4 1f 81 bd
       -0.44533885 -0.07761372 -0.45782384 -0.06304899
0001a0 d4 cf 68 bd cf 1b 75 bd dd b3 08 bd f8 20 dc 3a
       -0.056838825 -0.059840973 -0.033374656 0.0016794493
0001b0 88 6a 3a bd 29 f4 98 be cd 42 10 3f cc 1f 09 bd
       -0.045511752 -0.2987378 0.5635193 -0.03347759
0001c0 72 dc 0f be 67 96 86 bc 4f 89 19 3c a8 b6 b2 3d
       -0.14048937 -0.01642914 0.009371116 0.08726245
0001d0 38 f0 d9 bc 32 42 12 be 28 7e 90 bd c9 db 83 bd
       -0.026603803 -0.14283064 -0.070553124 -0.06438405
0001e0 33 43 db bd aa 23 b2 bb 5c f4 e4 be d5 4a 49 bd
       -0.107061766 -0.0054363804 -0.4471768 -0.04914363
0001f0 3e 06 d3 be 81 c4 a4 bd 03 fe 2b be 4b 17 1c bd
       -0.412157 -0.08045293 -0.16796117 -0.03810815

fc3.weight f4 [64, 128]
000000 9f 4d 8c 3d 6b 37 8f bd 8c 36 bd bc 9e b9 80 be
       0.068507425 -0.06992992 -0.023097299 -0.25141615
000010 7b ae 07 3e 74 81 b0 bc 1c 70 e2 3c e3 64 03 bd
       0.13250153 -0.021546103 0.027641349 -0.032078635
000020 bb d7 d0 3c d0 62 9e 3d b7 5e 1c 3b d3 45 84 bc
       0.025493493 0.07733691 0.0023860165 -0.016146576
000030 c6 55 4a 3c c1 55 08 3c 27 e5 54 3d a4 ad df bc
       0.012349552 0.008321227 0.05197635 -0.027304478
000040 5a 79 98 bb f5 68 5d bc 89 cf 3c 3e 93 f3 76 bd
       -0.004653138 -0.013513793 0.18438543 -0.060290884
000050 eb 6c 8d bc 5d 52 a3 3d c0 6c 44 3f 1c bc da 3f
       -0.01726385 0.07974694 0.7672844 1.7088656
000060 44 3a db 3b 5f 42 20 be 99 2b 71 3d 99 db 5f bd
       0.0066902954 -0.15650319 0.05887947 -0.054652784
000070 84 47 a3 bd 03 c9 7d be 86 00 1e 3d 93 c1 02 3e
       -0.07972625 -0.24783711 0.038574718 0.12769155
000080 b7 1a 14 c0 f8 50 8e 3d ad 70 c6 bd 1a 72 1d 3b
       -2.3141305 0.06949037 -0.0968946 0.0024024309
000090 b1 ab 8f 3d 9e 6d bb 3d 10 4c 97 3e a3 20 86 3e
       0.070151694 0.09151767 0.2955022 0.26196775
0000a0 e3 73 90 3c f9 3d 30 c0 24 be b8 bb 22 34 98 3d
       0.017633384 -2.7537825 -0.005637901 0.074318185
0000b0 3f c0 1a bd 0a ad 7d bd a8 25 8d 3e 03 f1 22 bd
       -0.037780996 -0.0619326 0.27567792 -0.039780628
0000c0 d6 83 17 bd 4a ec f6 3d 13 fe 90 3d bc 34 a9 bb
       -0.036990963 0.12056787 0.07079711 -0.005163757
0000d0 d3 c5 c0 be 8c 9b fe 3e 43 a6 30 3f 28 38 2f 3f
       -0.37650928 0.49728048 0.69003695 0.6844506
0000e0 29 40 94 3d db 0c 96 3c 42 1f 6d bd 15 9a 80 bd
       0.072388 0.018316677 -0.057891138 -0.06279389
0000f0 98 98 a8 3d fa c2 12 3f e2 85 2e c0 03 71 ce 3f
       0.0823223 0.5732876 -2.7269216 1.6128238
000100 32 71 cf 3d 32 e9 d4 3c e1 08 9d bb 78 e6 30 3f
       0.10129012 0.025990102 -0.004792318 0.6910167
000110 8c 25 32 c0 40 f1 56 bd 68 a1 60 3f 4d 5b 8b 3e
       -2.7835417 -0.052476168 0.87746286 0.27218094
000120 ec ee 75 3f 8d 4e b0 3d bc 4e 98 bd a3 e1 3a c0
       0.9606769 0.08608732 -0.074368924 -2.9200218
000130 ed e8 44 bd 24 83 35 c0 e6 6b 62 3d 4f f8 46 3f
       -0.048073698 -2.8361292 0.05527868 0.7772264
000140 c8 77 73 3d 04 12 d7 3d b9 91 5f bd ea 49 82 3d
       0.059440404 0.10501483 -0.05458233 0.06361754
000150 db 0c a5 3e 86 aa ba 3f 6b 28 a4 ba 8b fc 75 3d
       0.3223637 1.458329 -0.0012524253 0.060055297
000160 a8 95 d6 bc f0 91 31 3f e0 34 a9 bb 49 e5 54 3d
       -0.026194409 0.6936331 -0.005163774 0.051976476
000170 21 20 91 3f 11 a5 f7 3d 1b 03 a9 bd 84 70 15 bc
       1.133793 0.12092031 -0.082525454 -0.009121064
000180 6a 25 a1 3d 4f 08 56 3d 43 b7 a4 3d 01 fc c0 3b
       0.07868464 0.052254017 0.08042767 0.005889416
000190 aa 04 4a c0 e1 44 2f 3d b5 af b8 3f db e5 b2 bd
       -3.1565347 0.042790297 1.4428622 -0.08735248
0001a0 16 06 0b be 8d 15 b2 bd cc 33 56 3c 35 7f b7 bd
       -0.1357654 -0.08695517 0.013073873 -0.0895981
0001b0 00 e9 ae 3d 16 46 ef 3f 58 bf 80 3c bf 34 bc bc
       0.08540535 1.8693264 0.01571624 -0.02297437
0001c0 36 99 c6 3e 09 d9 20 bd 45 f1 a6 3d 1f 1d 8a 3c
       0.38788766 -0.03926948 0.08151487 0.01685959
0001d0 8c a9 67 3e ec 61 c6 3e 91 c0 43 bd aa 4c a1 3d
       0.22623271 0.38746583 -0.047791068 0.07875951
0001e0 b5 ff 9e 3d 40 52 e9 3d 39 7c 44 c0 e6 63 0c 3c
       0.07763616 0.11392641 -3.070082 0.0085687395
0001f0 97 4f ff be 42 51 26 3d 68 be 31 3f 51 ff 29 3d
       -0.4986541 0.040604837 0.6943116 0.041503254
000200 6d f8 98 bd 20 53 96 3e 39 1d 78 bd ae 17 b7 bd
       -0.074692585 0.29360294 -0.060574744 -0.089400634
000210 6e e3 2f bc 3f 54 4c bf de 07 47 3d d5 18 c4 bc
       -0.010735376 -0.7981605 0.048591487 -0.023937622
000220 89 dc 0b bd 59 7f d7 bc 0c 8c a1 3c 6e fb c3 3c
       -0.034145866 -0.026305841 0.0197201 0.023923602
000230 e2 a1 5c bd 8b c7 a6 bd 33 8c 7d bd 11 3d 87 3d
       -0.05386532 -0.081435286 -0.061901283 0.06603444
000240 85 a3 af bc 94 3e fd bc ef 58 84 3c c0 03 83 bc
       -0.021440277 -0.030913629 0.016155688 -0.015993
000250 56 62 5a bc cb 39 8b bf 10 b9 1a bf 6c b3 45 3f
       -0.013329109 -1.0877012 -0.6043863 0.772269
000260 05 0d 06 bd 80 ba 98 3e 62 a7 2b be 43 f3 4d bd
       -0.03272726 0.29829788 -0.1676307 -0.05028082
000270 11 2e 61 bd 26 d6 ce 3e 6f 3b cb 3c 21 85 e0 bd
       -0.054975573 0.40397757 0.024808614 -0.10962892
000280 17 ee d5 be 13 86 ef bd b4 0c 2d be 0c e0 8d bc
       -0.4178321 -0.116954945 -0.16899377 -0.017318748
000290 c3 7f c6 3c a8 94 70 bd 0b c4 b3 bd 43 6c 42 be
       0.024230843 -0.05873552 -0.087776266 -0.18986611
0002a0 2e 31 68 bc ec 9c 18 be b6 c3 50 3d a6 88 7b 3d
       -0.014171882 -0.14903611 0.050967894 0.061409615
0002b0 af 87 74 3d f4 f6 50 3e 2d b1 36 3d eb bc 56 bd
       0.05969971 0.20406705 0.04460256 -0.05242626
0002c0 64 b6 ad bd fe 1e c4 bf 3a 78 1f bd 18 c6 99 bd
       -0.08482054 -1.5321958 -0.038933016 -0.075084865
0002d0 72 4d 79 3e f5 ac e5 bd 14 bd 29 c0 5c c7 0e bd
       0.2434595 -0.112146296 -2.6521654 -0.034858093
0002e0 89 e6 9c bd 64 be c5 bc 36 fc 01 bd 59 31 2c 3d
       -0.076611586 -0.024138637 -0.031734668 0.04203925
0002f0 15 de 68 be 9f 52 21 3f 9a ff 56 bf 2d 3c e2 3f
       -0.22740968 0.63016695 -0.8398377 1.7674614
000300 f1 2a 10 be 26 8b 3a 3d 97 43 dd 3d c4 9e 2c 3d
       -0.14078881 0.04554286 0.10803907 0.0421436
000310 29 90 c0 bd d6 ff a6 3b 04 fc 10 3f 86 e2 c8 be
       -0.09402496 0.005096416 0.56634545 -0.39235324
000320 28 58 a3 3d dd d3 db 3d 1f b7 98 3e 07 07 02 be
       0.07975799 0.10733769 0.2982721 -0.12697993
000330 c0 d7 b4 3d 2a 6d 68 be 46 7a 67 bc 67 96 fb be
       0.088302135 -0.22697893 -0.014128273 -0.49138185
000340 28 9d f0 3c 6a 5f 08 c0 a9 34 2b bb a3 08 9d 3d
       0.029371813 -2.1308236 -0.0026123917 0.07667663
000350 41 2e eb c0 e8 61 a3 be 49 6b 3f bd a8 76 69 bc
       -7.349396 -0.31910634 -0.046733174 -0.014249481
000360 d0 41 a7 3c 58 e4 eb 3d 44 60 33 3d 6f 6a 2e 3d
       0.020417124 0.115181625 0.043792978 0.04258197
000370 0f 04 d1 3e 9c 22 ab 3d f2 0b 86 bd a7 d8 66 bb
       0.4082341 0.083562106 -0.06545247 -0.003522435
000380 e5 5b 03 3d b8 15 2e bb 23 34 2a bc 78 b9 82 bf
       0.03207006 -0.0026563238 -0.010388407 -1.021285
000390 0d 41 cb bd ef 15 69 bd c9 a2 1d 3f bc 23 82 3c
       -0.09924517 -0.056905683 0.61576515 0.01588618
0003a0 b5 5f a8 be d6 36 75 bd 14 26 b1 bd a0 13 29 3c
       -0.3288552 -0.05986675 -0.08649841 0.01031962
0003b0 ad e1 82 3c 39 b1 5c bf 9c d9 ae bf 6a 74 51 bb
       0.015976751 -0.8620792 -1.3660159 -0.0031960257
0003c0 a9 7a 0b 3e e8 d5 36 3d 72 3b 3f bd b0 74 0e bd
       0.1362101 0.04463759 -0.04668755 -0.03477925
0003d0 a0 ac 90 3d 05 80 61 be 52 4f 80 3b 8a 08 95 3c
       0.070641756 -0.22021492 0.0039157057 0.018192548
0003e0 8f df 17 bc f9 bd ac 3c 9f 8d c7 bd e9 0b a7 3d
       -0.009269609 0.02108668 -0.09743809 0.081565686
0003f0 b5 ba 37 be d0 48 b3 3d 30 b1 42 3e 24 a8 37 ba
       -0.17942317 0.08754122 0.19012904 -0.0007005951

fc3.bias f4 [64]
000000 b4 1c 87 3e df b7 64 bf 45 a9 ed bd b0 c2 36 bf
       0.26389086 -0.89343065 -0.11604551 -0.7139082
000010 9b e3 15 3f a8 5a 15 bf 5e e3 17 be 43 1a 5f 3e
       0.58550423 -0.58341455 -0.14832827 0.21787362
000020 bf ca 18 bf 0a 02 c9 bc c1 7d fb be 4a 35 59 bd
       -0.59684366 -0.024537105 -0.4911938 -0.053029336
000030 00 71 25 bf 1c 0b 0f bf b2 6a 45 bf 2e 02 32 bf
       -0.6462555 -0.55876327 -0.7711593 -0.69534576
000040 16 fc b0 bd 28 53 b1 bd be 38 2e bd 01 a2 69 bd
       -0.086418316 -0.08658439 -0.042534582 -0.057039265
000050 96 fd 95 bd 83 6e 98 be 1f fd f3 be 1a 9f e8 be
       -0.07323758 -0.29771814 -0.47654054 -0.45433885
000060 6f b7 28 bf f2 f8 fb be 2a 21 13 bf a3 32 c4 3d
       -0.659049 -0.49213368 -0.5747248 0.09579971
000070 6e bf 8c bd 53 d6 ee be 61 a9 6e bd f9 40 c9 3a
       -0.0687245 -0.4664789 -0.058267 0.0015354446
000080 50 98 72 3e a1 2c 9f 3f a1 ff b7 3e 1f dc bb bd
       0.23690915 1.2435495 0.35937217 -0.09172844
000090 e0 d9 01 bf b5 50 aa be a1 83 b3 bd 4d 57 33 3f
       -0.50723076 -0.332647 -0.087653406 0.70055085
0000a0 64 dc 18 3f a2 85 66 3e 6e e3 0c bf da 0d 6d bd
       0.5971129 0.22511914 -0.5503453 -0.057874538
0000b0 db 8e b4 bd 99 d2 b2 bd a9 1f d8 be 87 b5 38 bf
       -0.0881631 -0.087315746 -0.42211655 -0.7215199
0000c0 fd 70 2d bd 0c f1 fa be c7 34 2f 3f da 9e 5f bf
       -0.042344082 -0.4901203 0.68439907 -0.87351763
0000d0 bf 7f eb be cc a9 18 bf 45 27 d2 bd 30 74 ab bd
       -0.459959 -0.5963409 -0.10261396 -0.083717704
0000e0 78 61 8e be 18 e5 b4 3e 9c 50 21 3f 38 c4 3a bf
       -0.27808738 0.35331035 0.63013625 -0.72955656
0000f0 ab d9 51 bf 61 15 90 bd 90 1c 1d bf c5 99 4b bf
       -0.8197276 -0.07035328 -0.6137171 -0.7953151

fc4.weight f4 [2, 64]
000000 ba c1 7a 3e a7 2e 0d bf a3 49 0c 3e 3a cb 14 be
       0.24487963 -0.5514931 0.13699965 -0.1453065
000010 07 25 5d 3d 0b 1b ae 3d 8c 15 97 bd e2 d6 86 bd
       0.05399039 0.08501252 -0.073771566 -0.065839544
000020 59 cb bb be 48 22 0f 3d 70 7c 26 be 7b d0 7d 3d
       -0.3667858 0.034944803 -0.16258407 0.0619664
000030 f9 48 d2 be 8a b7 0e bd 17 1c b2 bd 9b 6a a7 bd
       -0.410713 -0.034843005 -0.08696764 -0.0817463
000040 a2 0b 9c bd 39 e0 d3 bd 99 e7 83 3d 93 51 cd 3b
       -0.07619406 -0.103455015 0.06440658 0.006265828
000050 a3 22 9b 3d 7a a1 c5 bd 56 6b db bb 2c 7d c0 bd
       0.07574966 -0.0964994 -0.006696145 -0.09398875
000060 4e fc 84 3d 8c d0 16 3e 55 fe 61 be 0d 08 84 be
       0.06493436 0.14727992 -0.22069676 -0.25787392
000070 e5 ea f5 bc 06 08 d4 be b9 81 a8 3d 86 50 b9 3d
       -0.030019233 -0.4141237 0.08227868 0.09048562
000080 a1 63 9e bc 56 17 5c 3e a6 df e8 3c 46 55 85 3d
       -0.019334616 0.21493277 0.028426956 0.06510405
000090 9e ab 36 3c ed 41 3e be 83 fe 48 bc 9a 53 5c 3d
       0.011149315 -0.18579836 -0.012267712 0.053790666
0000a0 dc 24 ca 3d c5 d6 59 3b fd 35 59 3e c4 84 33 3d
       0.098703116 0.0033239585 0.21212001 0.043827787
0000b0 ac b8 7e 3d b3 a2 03 bd ba 52 ce be f5 c7 8b 3d
       0.062187836 -0.032137584 -0.4029749 0.06825248
0000c0 41 e7 74 3c 7c f6 53 be bd a8 84 bb a4 2c b5 be
       0.014947713 -0.20699495 -0.0040484355 -0.3538562
0000d0 ba a2 05 be d3 4b 9f be f1 f7 49 3d 7c e2 83 3d
       -0.13050357 -0.31112537 0.04930872 0.06439683
0000e0 fc 51 b0 be 8a 07 8b 3d ea 8d bc 3d af 8b cc 3d
       -0.3443755 0.06788547 0.092067555 0.0998758
0000f0 fe 87 64 bf 4a 2f 69 bd 73 6c 9f bd bf 12 14 3d
       -0.8927001 -0.056929864 -0.07784357 0.03615069
000100 e0 52 5b be c1 d2 0b 3f 80 fb af 3d dd a3 28 3e
       -0.21418333 0.5461846 0.08592892 0.16468759
000110 bc 34 87 be c0 fa 2b 3d 38 32 14 be 2a b6 b0 bd
       -0.2640742 0.04198718 -0.14472282 -0.08628495
000120 c3 a8 17 3f 42 05 c3 3b dd 70 37 3e 87 87 98 3c
       0.59241885 0.0059515545 0.17914148 0.018619312
000130 5a 4d 5f 3e 5d a1 f0 3d 0e 47 98 3e 70 aa 88 bc
       0.21806851 0.117495276 0.2974171 -0.016682833
000140 b0 8f 60 3d 99 11 05 be 05 2f 32 3c 1d a0 15 3e
       0.05482453 -0.12994994 0.010875468 0.1461186
000150 9d 21 b7 3c 46 ed 3a 3d 39 33 0a 3e 53 82 08 bd
       0.022354895 0.045636438 0.13496102 -0.03332741
000160 df 0e 79 be 9c d9 80 be d2 d9 9d 3e 27 fe 93 3e
       -0.24322079 -0.25166023 0.30830246 0.2890484
000170 b3 ae ce 3d b5 6e 8a 3e a5 69 97 3d eb 43 2d bd
       0.10091915 0.27037588 0.07393197 -0.0423011
000180 a8 32 c6 3d 91 f7 76 be 42 d0 e4 3d e6 5f 0c 3d
       0.09677631 -0.24117877 0.111725345 0.034271143
000190 16 68 00 be ce 1f 43 3d b2 a9 d7 3c c5 6c c6 bd
       -0.12539706 0.047637753 0.026326034 -0.09688715
0001a0 2a 8d 93 be 9f 99 33 3d 53 fe 8b be 05 7a 0a 3d
       -0.28818637 0.043847676 -0.2734247 0.033807773
0001b0 76 5e d4 3c 36 76 eb 3c ee ee cc 3e eb e1 05 3e
       0.025923949 0.02874289 0.4002604 0.13074462
0001c0 17 6a b7 3d 7a df 59 3e f1 e3 28 be 79 5c 98 3e
       0.08955782 0.21276656 -0.16493203 0.2975805
0001d0 65 70 68 3a e3 75 81 3e 20 08 fa 3b cc 5c b9 bc
       0.0008866846 0.25285253 0.007630363 -0.022627257
0001e0 34 c5 b5 3e 24 5d 0d 3d d7 6f 2c bd b7 91 02 3e
       0.35502017 0.034512654 -0.042098846 0.12750898
0001f0 ae 7d 71 3f ba 84 0a be 20 c8 5c bd 5d 7f 01 3d
       0.94332397 -0.13527194 -0.05390179 0.031615604

fc4.bias f4 [2]
000000 de 44 f1 3f aa 8d 07 c0
       1.8849142 -2.1180215
